NN-framework/data/best_model.pth (torch, 30886 bytes, 6 tensors)

network.0.weight f4 [64, 33]
00000000: 4b9e 83bd ad5e 8fbd 18d5 8a3d e2df 4abd
00000010: 0478 363e 1d98 11be 2e37 fe3d 7383 cd3e
00000020: 2eb0 a73d a9fe 4ebd 98f5 073e 356f 433e
00000030: db1d 133e 79cd 9fbe 7cdf 083e ee4e 3f3e
00000040: 5ac6 493d 3699 91be 130b a13d a637 e43c
00000050: a4fa d0bd 6052 3d3c f50d 9a3e 7e32 8c3e
00000060: b5e8 823e 681c ac3e 2fb1 adbe 0947 d6bc
00000070: e9c8 0abe 9171 91be 7329 7c3d caf2 9dbe
00000080: 5169 32be e303 32be 5757 a83d d86b a73d
00000090: 6acf 93bd 6cee 94bd be30 d6bc f622 42be
000000a0: a44a a1be f387 3ebe b602 b0be 509c 533d
000000b0: 55e9 843d c54b 6fbe 720c 863e baa2 29be
000000c0: bf29 2abd 32e2 9f3e 82f3 973d f2de 943e
000000d0: b64b 19be 1466 d53e 63de aa3b 0523 75bb
000000e0: dc7c 28be d228 083e 98f7 513e 74f7 cf3d
000000f0: e540 b9bd b1bd 653e 20fd e5bd 13de 683c
00000100: 1725 0bbd 1c9b e93d 3a77 7abe c5b2 53be
00000110: 0262 5e3e 5851 8cbd 4b08 5a3e 8154 c1bd
00000120: 0aae a53e ca0e 9fbc e062 e23e 4f97 923d
00000130: 6716 90bd 155f d4bc 072b 003e 56e7 b53e
00000140: 0b86 10bd 04e2 413e 715c b13d 86af 80ba
00000150: 95b8 69be 7359 49be 61e3 a4bd 5395 d03d
00000160: 616d d2be eb50 b2be fb9a 783e 0a13 0dbe
00000170: a524 1ebe e4cb 063e e109 23be ea8e bfbe
00000180: 8bbf 86bc 2fa1 453e c5da 9b3d 8e2b a73d
00000190: d6e9 6ebd 292b 13be 54e6 a1bd bd51 5e3e
000001a0: 110f 5f3e 7d14 7c3d 55be e4bd 20b1 183e
000001b0: 754d cbbc b368 d03d 1356 503e 6674 8b3d
000001c0: 00e4 243d 7a8c 2ebe 9d61 f9bb 9a92 60be
000001d0: a4b3 93be 919f 72be 2cb4 55be 7aa4 313e
000001e0: a35b a03c cd65 383c 5278 d13c 5deb 013e
000001f0: b16e 17be 83af 833e 2e58 d93e 5e11 36bc
00000200: bdef 10be ad46 c23e 285e 85be f4a3 f43c
00000210: 7ce7 1cbe ae7a 8cbe ffc4 c5bd 11d9 933e
00000220: caad 7e3e 3002 87be aabd d63d f910 dbbd
00000230: 6c98 78be 526b 7a3b 65ad bd3e e25e aebe
00000240: 1cea c6be b5f8 31be b0a4 6dbe 205c ba3e
00000250: 5df6 fabd 66d4 23be 4b36 623e eb3d b73e
00000260: 63c2 7dbe b7a6 4b3e 5c37 9a3d 9041 f93d
00000270: 62ca 1cbe e2dd 8fbc 0f09 263d 8398 0a3e
00000280: 7a6a 9cbe 66b3 65be 36b9 cdbc 0dd7 233d
00000290: 7819 ab3d 083d fbbe 63fc e93d c319 943e
000002a0: c992 3dbd 642e ee3d 0837 633d d485 babd
000002b0: 234c a3bd 91fb 6fbd 6c02 55be 656f 173c
000002c0: f4db 4c3b c91d acbc 390c 9fbd 43a0 bf3b
000002d0: a171 83bd 033e 74be d636 9abd ef05 313e
000002e0: b8fb ca3c 9146 453e 8ef2 4fbe e244 1e3f
000002f0: 7982 c13d f8e0 993e 5b6e c9bd 1d8c bbbe
00000300: 6c83 18be 8613 ad3d b0ca 2abb a41f 9c3e
00000310: b2b1 85be f6f4 c3bd eb20 523e c9ae 77be
00000320: 3afc 76be 6c6b 8dbd 213e d9bd c7e4 713e
00000330: 7b15 ebbd 223e c5bc 30ce 2abe 1677 5e3e
00000340: 59e7 eb3e 2645 443e bbdd 773d 26b7 0dbe
00000350: 3d3e 87be d9be 04be 9bb7 413d e869 9d3e
00000360: c33f 50bc 29f9 a4bd 52be e6bd d342 efbd
00000370: 80d9 d8bc 6ef5 c53e 4659 b2bc f933 5fbe
00000380: f4de 183e f1f6 8f3d dd27 bbbd 4938 02be
00000390: 775c d0be a560 4e3e 4957 3e3d 8c0a c13d
000003a0: bd70 6c3e aca7 52be 1d4d b1bd ecb1 e0bc
000003b0: f37a 7abe 71ba 8bbe 60d2 333e 2cf1 9e3c
000003c0: 7d9d f13d 0eb0 9e3c cc7e 8abe 0410 4dbe
000003d0: ac28 e53d ba60 93bd 4152 f83d b4c6 d1be
000003e0: 12a4 c53e cc78 b9be b663 d43c 202c 493e
000003f0: 9b14 933d 199b 2a3e 443d 8d3d ce0d a43d
-0.06426676 -0.0700048 0.06778926 -0.049529918 0.1781922 -0.14218183 0.124128684 0.4013935
0.081879005 -0.05053583 0.1327728 0.19085391 0.14366858 -0.3121145 0.13366503 0.18682453
0.04926143 -0.28437203 0.0786344 0.027858566 -0.10204056 0.011555284 0.30088773 0.27382272
0.25568166 0.33615422 -0.33924243 -0.02615692 -0.13553204 -0.28406957 0.061562967 -0.30849296
-0.17422988 -0.17384295 0.08219784 0.081748664 -0.072172955 -0.07272038 -0.026146289 -0.18958649
-0.3150226 -0.18606548 -0.34377068 0.051662743 0.06489817 -0.23368748 0.2618137 -0.16565982
-0.04154372 0.3122726 0.07419492 0.29076344 -0.14970288 0.41679442 0.005214499 -0.0037404906
-0.1645388 0.13296822 0.20504606 0.1015462 -0.09045581 0.22435643 -0.112299204 0.014213103
-0.03397092 0.11406538 -0.24459544 -0.20673664 0.21717075 -0.068514526 0.21292226 -0.09439946
0.32359344 -0.019416232 0.4421606 0.07157766 -0.07035523 -0.025924245 0.12516414 0.35528058
-0.035284083 0.18933874 0.0866021 -0.0009817935 -0.22824319 -0.19663028 -0.080511816 0.10184731
-0.41099074 -0.3482736 0.2427787 -0.13776794 -0.15443666 0.13163716 -0.15921737 -0.37413722
-0.016448757 0.19299768 0.07610086 0.08162604 -0.058328472 -0.14371933 -0.0790526 0.21710868
0.21783091 0.061542977 -0.111691155 0.14911318 -0.024817208 0.1017622 0.20345335 0.068093106
0.0402565 -0.17045775 -0.0076105134 -0.21930924 -0.28847992 -0.23693682 -0.20869511 0.17347899
0.019574946 0.01125474 0.025570069 0.1268744 -0.14788319 0.25719842 0.42450088 -0.011112539
-0.14153953 0.37944546 -0.26048398 0.029863335 -0.1532268 -0.27437347 -0.09656715 0.28876546
0.24870983 -0.26368856 0.10485394 -0.10696597 -0.24276894 0.003821094 0.37046352 -0.34056765
-0.38850486 -0.1738003 -0.23207355 0.3639841 -0.12254021 -0.15998992 0.22091024 0.35789427
-0.24781184 0.19887815 0.0753009 0.12170708 -0.15311578 -0.017561857 0.040535983 0.13534741
-0.30549985 -0.22431716 -0.02511273 0.04000001 0.08354467 -0.4907 0.11425092 0.28925905
-0.046282563 0.11629942 0.055472404 -0.09107557 -0.07973506 -0.05858952 -0.20801705 0.009242867
0.0031259032 -0.021010296 -0.07766003 0.005847962 -0.06418157 -0.2385178 -0.075299904 0.1728742
0.024778232 0.192652 -0.20307371 0.61823857 0.09448714 0.3005445 -0.09835502 -0.36630335
-0.14893883 0.084509894 -0.0026060753 0.3049289 -0.26112133 -0.09568207 0.2052037 -0.24187769
-0.24119654 -0.06905255 -0.10607553 0.23622428 -0.114787064 -0.024077479 -0.16680217 0.21725115
0.46074942 0.19167003 0.060514193 -0.13839397 -0.26414672 -0.12963428 0.04729424 0.30744863
-0.0127105145 -0.08055336 -0.112667695 -0.116826676 -0.0264709 0.3866381 -0.021771085 -0.2179717
0.149288 0.07029522 -0.09138463 -0.12716784 -0.40695545 0.20154054 0.04646996 0.0942584
0.23089881 -0.20571774 -0.08657286 -0.02742859 -0.24460964 -0.2729068 0.1756072 0.01940211
0.11797617 0.019371059 -0.27049863 -0.2002564 0.11189398 -0.071961835 0.12125064 -0.4097191
0.38601738 -0.36224973 0.025926452 0.19645739 0.071816646 0.16660728 0.06896451 0.080104455

network.0.bias f4 [64]
00000000: d160 d33b de1b 123e 6b56 523d a4ef 2ebe
00000010: dd46 053e f395 353d d254 533e 8c76 943d
00000020: f3c1 343e da16 61bd 29c6 283e fdef 1c3c
00000030: 8233 ff38 0988 b83c c343 d6bc d059 13be
00000040: 440e 16bd fc1f 2b3e 4e2f 1b3e b04f 283c
00000050: 9ea0 933c 5aa6 2b3e 1476 acbd a2b4 e0bc
00000060: 5d33 a8bd 6506 05be e671 083e 25f1 0b3e
00000070: dbd4 7e3d dcd9 dc3d c7fa 153e 7e46 e2bd
00000080: 2922 d23d fab9 b83d 558b 843d d572 053e
00000090: 0898 283e e0f5 16be 885c 2f3e a9f7 593e
000000a0: 6437 8bbd 3cf7 d2bc 5fcb 1cbe ebf9 9c3d
000000b0: 9b37 173d 8c15 183e 5932 f7bd b550 203e
000000c0: 8cec aabc 5d2b 5f3c bf62 9439 f06f efb9
000000d0: a181 a3bd ca67 133e c1e5 4abe a897 813d
000000e0: 1b40 003e 49fe 8fbd 58be 573e 3ac9 06be
000000f0: 525a 78bd eca6 7c3c 039e a2bd 116c f9bc
0.0064507504 0.14268443 0.051351946 -0.17083603 0.13015313 0.044332456 0.20637825 0.072491735
0.17652111 -0.054953434 0.16481842 0.009578702 0.000121689416 0.022525804 -0.026155358 -0.1438973
-0.0366347 0.1671142 0.15154764 0.010272905 0.018020924 0.16762677 -0.08420959 -0.027429882
-0.08212922 -0.1299072 0.13324699 0.13666208 0.062214714 0.10783741 0.14646445 -0.110486016
0.10260422 0.09019847 0.06471888 0.13032086 0.16464245 -0.14742231 0.17125142 0.21285881
-0.06797674 -0.025752656 -0.15311955 0.076648556 0.036918264 0.1485197 -0.1207015 0.15655787
-0.020864747 0.013621178 0.0002830233 -0.00045669032 -0.07983709 0.14395061 -0.19814207 0.06327754
0.12524454 -0.07030923 0.21068704 -0.131627 -0.06063301 0.015420657 -0.079402946 -0.030447038

network.2.weight f4 [64, 64]
00000000: 2d8a 953e 1dec 53be 883a 413e 9be2 0cbf
00000010: c633 593e e978 933e b5e0 8e3d e291 f6bd
00000020: b735 343e 79cd d7bc 703f b33e 8b51 a1be
00000030: 2c54 ba3e 56e0 71be e97a 713e 12a2 78be
00000040: 9618 af3d ae50 823d ee63 d3bd 6e1c d73d
00000050: 53c3 833d b9e6 d6bd e431 cfbd 74da a4be
00000060: a7cb 00be ac86 d8bd 97ab edbe ddd0 d93d
00000070: 2350 bb3d 759f 923c f50a 093d 19a0 c8ba
00000080: 4377 9f3e 8400 2c3f 7aa9 bfbd 234a 9c3e
00000090: 53a1 823e 148a 023f 60eb 74bd ae41 9e3e
000000a0: 14ff aa3e a43d 4abe d021 a53c 50cb 2abf
000000b0: 0b18 4f3e 5d33 943d 662a 53be e27b 30bf
000000c0: 4bad eabc e54a b33e d22b debd a8d6 77be
000000d0: 0a85 c9be 4e3e 3dbe e536 cfbd 2d9d 57be
000000e0: 579a dbbe 2645 283e ddab 7dbe c684 eabb
000000f0: 9e26 823d fd68 8cbd 7556 5a3d 3410 af3d
00000100: 47a9 c63e 42e2 bd3e d720 bebe 170f ee3d
00000110: a2df ad3e b3b7 3dbd 55d2 f2bd 0003 50be
00000120: 1598 0c3f 1512 f83d f166 e5bd 12da 3ebd
00000130: 3778 8abd 6f64 0e3d e5ec 933e 05dd 2abf
00000140: 6035 37bc b08b 0bbe e5aa 193f c013 b13c
00000150: bab1 87be 1697 d93d 3c10 bf3d aa86 57be
00000160: 041c debd 129d fe3d f422 eebd 46d3 a13d
00000170: b88a 913c 2c5e dc3d f274 0a3d e11c 983e
00000180: bd83 e9bd 41e4 08bd 47db df3e 44e3 27bd
00000190: c015 0abf 1f29 d3bc d089 5b3d 092d 523e
000001a0: ed68 7e3e 1dd2 ebbe f42d e93d f6d4 723f
000001b0: a3eb 22bf e3b2 533e fd72 3bbd bd07 afbd
000001c0: 4c68 493e 7f3c 9a3e 692d 7d3e 4321 833c
000001d0: 94d1 bcbe ed3a 243c 5b39 26be 2fe0 2cbd
000001e0: b0c2 99be a6d8 ac3d 2017 19be e2d4 cf3d
000001f0: 60b6 8b3c c34c 923d 6689 d43d 6dca 453d
00000200: 5a76 6f3d 5201 c93e 2ad9 02bf f10b d7be
00000210: 01b7 ac3e c23f febe dabb 0dbe 5b3e af3d
00000220: 7b2a 4b3e 4c1a 7f3d 20cd 0a3c 4b1d 22be
00000230: 11a8 3fbf 90d3 1f3e 6785 aa3d 30f3 d6be
00000240: 2a1c c5bd 695a 5b3e 6fa8 cdbd e644 9e3d
00000250: 195f 8cbe d580 703f b015 5c3c feba 93bd
00000260: b802 983d 20dd 69ba 3314 af3d 84dc 35be
00000270: 87e8 c43e 540f 0f3f f2fe 23be a8e9 7a3e
00000280: 325b cfbd dc6d a43d c3ba acbb c124 4fbe
00000290: 42c4 c4be 82b8 06bf 845d 78bd 7ae0 94be
000002a0: 7ce9 6f3e 814d 11bf a04a f3bc 440f 993e
000002b0: 5f6f 853e 0f2e 943e d5ce ad3d 0017 0e3f
000002c0: 6767 e53e 3930 57bd 4964 9bbe 87e9 e0bc
000002d0: d47c 0b3d 966e 953e 3415 afbe 1e64 28be
000002e0: e5f7 913d 3cd2 683d acb1 323e 31fb 2a3e
000002f0: 7c22 163d b87c 5cbe 35b3 4b3e 37eb d63c
00000300: aee9 d03d 3886 7a3e 5498 67be 4ceb 833e
00000310: 4015 d3be de12 e73e 5832 a73b c040 f1be
00000320: 82d9 5dbb f067 133f e324 9e3d 2f4f 153e
00000330: ba36 fb3e f6f1 8cbe 74a0 af3d 34a5 bb3e
00000340: da19 9bbd a794 753d ecea 0c3e 60b3 c7bb
00000350: 0bb3 abbc f6a1 823e fc9f debd 4568 b63e
00000360: 1708 61bd 52dd 10bf 203e f7be 3d69 4abd
00000370: 9343 103f 6f3a 233e 5cdb 96be 2704 f5bc
00000380: 9113 7bbe 2085 993e 23a6 953e 1acd 6a3e
00000390: f552 9ebe bbc0 4cbc b252 a13d a342 e93c
000003a0: 2a67 4e3e 3786 173e 1ecc b83d 1e45 b83e
000003b0: 32e8 8dbe 4fb1 a3bb 286b b5bd 76ca 0d3f
000003c0: 4203 863e d144 13bf f858 aebd c92e 853e
000003d0: 5f24 493f d229 a3bd 6fb6 09be 7a71 dbbd
000003e0: 7bed cc3d a847 d7bd 1c31 2f3f ed88 89bd
000003f0: 8c8a 093d e919 0b3d f846 2bbb d22c 1cbe
0.29206982 -0.20695539 0.18869984 -0.5503327 0.21211156 0.28803185 0.06976453 -0.12039544
0.17598616 -0.026343094 0.35009336 -0.31507525 0.36392343 -0.23620734 0.23582043 -0.24280575
0.08549611 0.06363045 -0.103217945 0.105034694 0.064337395 -0.104932256 -0.10116938 -0.32197917
-0.12577687 -0.105725616 -0.46419975 0.10635541 0.09146144 0.0178983 0.033457715 -0.0015306502
0.31145677 0.67188287 -0.09358497 0.30525312 0.25513706 0.5099194 -0.059794784 0.30909485
0.33397734 -0.19750077 0.020157725 -0.6671648 0.20224015 0.07236359 -0.20621642 -0.6893903
-0.028647086 0.35018077 -0.10848202 -0.24202979 -0.39359313 -0.18480799 -0.10117892 -0.21056052
-0.4289119 0.16432628 -0.24772592 -0.007156941 0.06355022 -0.068559624 0.053305108 0.085480124
0.38801023 0.37086684 -0.3713443 0.11623972 0.3395968 -0.046317767 -0.11856524 -0.20313644
0.5491956 0.12112824 -0.11201275 -0.046594687 -0.067612104 0.03476375 0.28891674 -0.667435
-0.011182159 -0.13627505 0.6002639 0.021615863 -0.26502782 0.106245205 0.09329268 -0.21047464
-0.10845187 0.124323025 -0.116277605 0.07901625 0.017766342 0.10760149 0.033802934 0.29709533
-0.1140208 -0.033420805 0.43721983 -0.04098822 -0.5393944 -0.025776444 0.053598225 0.20524992
0.24844714 -0.4605874 0.11385718 0.948562 -0.63640803 0.20673709 -0.04576396 -0.08546398
0.19668692 0.3012428 0.24724354 0.016007071 -0.36878645 0.010023815 -0.16232817 -0.042205986
-0.30031347 0.0843976 -0.14950228 0.10148026 0.017054737 0.071435474 0.10377769 0.04828875
0.05846248 0.3925882 -0.51112616 -0.42001298 0.3373337 -0.49658018 -0.13841191 0.08556815
0.19840424 0.062280938 0.008471757 -0.15831487 -0.74865824 0.15608048 0.08326226 -0.41982412
-0.096245125 0.21421207 -0.10041892 0.07727985 -0.27416304 0.9394658 0.013432905 -0.072134
0.074223936 -0.0008921195 0.085487746 -0.17759901 0.38458654 0.55882764 -0.16015223 0.24503195
-0.10124816 0.080287665 -0.005271287 -0.20228864 -0.38430983 -0.52625287 -0.06063606 -0.29077512
0.23428911 -0.56758887 -0.02969867 0.2989446 0.26061532 0.2894139 0.08486716 0.55503845
0.44805452 -0.052536223 -0.3034995 -0.027455105 0.034054592 0.29185933 -0.34195864 -0.16444442
0.0712736 0.05684112 0.17450589 0.16697384 0.03665398 -0.21531951 0.19892581 0.026235206
0.10200821 0.24465263 -0.22616702 0.25765455 -0.4122715 0.45131582 0.005102437 -0.47119713
-0.0033851569 0.5758047 0.07721879 0.14580987 0.4906519 -0.27528352 0.08575526 0.36649477
-0.0757329 0.05995622 0.1376149 -0.006094381 -0.020959398 0.2551419 -0.10870358 0.35626426
-0.054939356 -0.5658771 -0.48289585 -0.04941677 0.5635311 0.1594026 -0.29464233 -0.029909207
-0.24519183 0.2998438 0.29228315 0.22929803 -0.30922666 -0.012497122 0.07877101 0.028474158
0.20156541 0.14797293 0.09023307 0.35990232 -0.27716213 -0.004995502 -0.08858329 0.55387056
0.2617436 -0.5752688 -0.08513063 0.26012257 0.7857112 -0.07966961 -0.13448499 -0.10715003
0.10006233 -0.10511714 0.6843431 -0.0671557 0.033579394 0.033960257 -0.002613483 -0.15251473

network.2.bias f4 [64]
00000000: b606 093e 5f31 5cbc b836 303d 93b8 cc3d
00000010: 9e77 83bc 74f3 25bd c864 8a3d a510 d1bd
00000020: 1540 693e 14a8 1dbd 42ba aabd 0371 113e
00000030: 5297 30bd c848 b33d 5268 273d 4054 963d
00000040: cba9 3bbc e33f 0fbd d081 4b3d 395e 923d
00000050: d62d 0cbe 1e95 e93c 2424 053e 25ba 12bd
00000060: 3e3a 84bd 363e 21be 2751 a43d 35bb ee3c
00000070: 1b46 15bd d5fe 513d 5340 543e 6783 0d3d
00000080: 27ba 49bc 4942 04be e571 e93d 2d0d 523d
00000090: ebf6 d43b acb7 1fbd 06cb f13d d1ed 1f3c
000000a0: bf8c 0f3e 9bff 153e fea5 9fbd 3713 383d
000000b0: d2ec 13be faca 573c bf0a 493d 897d e13d
000000c0: ec2f db3d da35 893d 3cbb f03d 959a 023e
000000d0: 62c8 b93d 2d54 f13d 061a 933d 5735 f13d
000000e0: b2f1 2abb 488c cebd a610 d63d 6972 ce3d
000000f0: 8bc4 61bd ce56 0a3d 4dde 1b3e 015b bd3c
0.13381466 -0.013439505 0.043020934 0.09996142 -0.016048249 -0.040515378 0.06757504 -0.10208253
0.22778352 -0.03849037 -0.08336307 0.14203267 -0.04311306 0.08754116 0.040870972 0.07340288
-0.011454056 -0.034973036 0.049684346 0.07146878 -0.1368936 0.028513487 0.13002068 -0.035822053
-0.06456421 -0.15746388 0.08023291 0.029142002 -0.03644381 0.051268417 0.20727663 0.034549143
-0.012312449 -0.12915911 0.11398677 0.051282097 0.0064991615 -0.038993523 0.11806302 0.00976129
0.14018534 0.14648287 -0.07795332 0.0449402 -0.14445809 0.013170952 0.049082514 0.11010272
0.107025 0.066997245 0.11754462 0.12754281 0.09071423 0.117836334 0.07182698 0.11777752
-0.0026084003 -0.1008535 0.10452394 0.10080416 -0.05511908 0.03377419 0.1522152 0.023114683

network.4.weight f4 [11, 64]
00000000: 56c7 fabd 575c 573d b6f5 c43e fd45 65bd
00000010: 0459 b43e c951 82be 86da a7be ef95 5abf
00000020: f86f df3d 2457 4d3d dc4e a6bd f714 ca3e
00000030: bc8a 803c 8fda 1cbe f353 09bf ff23 c73d
00000040: bd06 723f 0e43 03bf f36b 84be b750 813d
00000050: aea5 dcbd 55f1 513e 8bbb f23e f3db 86be
00000060: 61b5 b23e 3b45 91bf a052 273f aee9 b6bb
00000070: 188f acbe 5fed cb3e f9a0 ce3e c0d7 5dbe
00000080: 6d2c 0d3e 5235 febe 28be cb3d a9fd 083f
00000090: f1c4 90bf a962 61bd cb36 a93b e80e 5bbe
000000a0: 4f3e 6c3e 6b9a 91be 0436 d03e b388 d33e
000000b0: f3d3 3bbe f32b 20be bad9 ddbe aa24 8ebe
000000c0: ba29 3ebe 9344 653d ba27 d8bd 3ee0 c03e
000000d0: 806d 34bd bb45 883e 514d 1dbf e0a7 243f
000000e0: 9d0e 193d b8a0 e1be 1134 04bf ee4f 4d3d
000000f0: 12c9 d33c 98e9 e63e ed14 e63c 7760 3abe
00000100: 3e20 88bd 1587 793c 3122 abbe 1e70 953e
00000110: a3cb 73bf 11ba f63d 9122 e93e 1be4 01be
00000120: 8969 34be 0060 4a38 19b7 d13e 9773 043f
00000130: 88c5 9a3d 8b3a 743d dc8b d93d 74bc e6be
00000140: 5126 07bf 4469 9bbe c1ac 073d 568a 8a3e
00000150: 17fd 12bd da88 ca3e eb27 00be 9b77 65bf
00000160: e28d 993d b996 593f d110 da3d 0e60 d0be
00000170: 4664 80be 0ee3 e43e 3a7b aabe 006d f8bd
00000180: 5785 bb3e 412b 21be 570f fa3e ac0a dd3e
00000190: b026 2bbe fb29 ecbc e11d ce3d 514b 073f
000001a0: bef4 a43d 81a2 babe 4dd8 7cbe bc34 f9be
000001b0: aec6 08bf ba9b f2bb 6554 3bbe 7275 3abf
000001c0: b467 d1be c47e 66bf b5b2 ae3d 4be3 6bbe
000001d0: 3390 08be 1da5 f6be 22ac a43e fcf4 873e
000001e0: 9272 d2bc df28 7d3f 987f a6be a6a6 17be
000001f0: 9dbb 48bd 1f26 f23e d7be 5fbe 9495 693e
00000200: eaa1 54be 2027 3cbf c9c8 d7be 420b f43e
00000210: 8d64 693f 04ed 0d3e 0f47 0cbf ea56 6fbd
00000220: e7f9 ee3e 6827 debd 4e7b a6be d3d8 b2be
00000230: 665d cb3d ebd1 c83e 3a26 96be f0a3 dd3e
00000240: 68a7 80bf 688d a8be dea5 a93e 55bc 54bf
00000250: c62d 3abd 01f0 d6be 2899 46be f6df e1be
00000260: e4af 7cbe e836 153f 85ba 87be 266e 423e
00000270: 8303 58bf b41b 2cbf 23ac c63e c82f 47bf
00000280: 5401 923e f351 8abf 03b0 33bf c5cb 193e
00000290: bb4b 9f3e ef10 b4bd a028 ebbd 2d1b 2c3e
000002a0: 733a 01bf 5ae3 d13e b6f5 0dbf 4c4f c03e
000002b0: 7969 e539 7c59 b43b 6c6c 89bd ef72 bc3e
000002c0: c642 c83e 759f e53e aab8 ef3d e90f 833e
000002d0: 45f3 b9bd 4808 c3bd 4564 24bd 8f9b 61be
000002e0: c807 573d d391 8a3d 6ee3 ba3d 96be 2cbe
000002f0: 44bc 13bf bd55 03bf 0b22 a5bd d2ee 06be
00000300: eb60 38bf e638 693b a810 3b3f 3ad4 a63d
00000310: daaf 68be 41ed 30bf efdc 26bf ce71 383e
00000320: 0544 ad3e 70fb c5bc bbc9 4ebc 67e0 f7bd
00000330: 724f 12bd c8e9 dbbd dc03 eabe e15f 5fbe
00000340: 99f3 4d3e f3dc 123f e3d7 0cbf d48b 8ebe
00000350: fe8d d9bc 24d7 a5be 2d1c f73e 1353 173f
00000360: 57f2 21bf 053e 23bf dc62 adbe 86db 5b3e
00000370: 18c8 2f3f 074d 483e 5c91 e1ba 81ac 303c
00000380: bf08 d8bd 74af f23e b59e 85be 6e71 00bf
00000390: c798 c5be 9061 903d 09b4 bbbe 75a8 69be
000003a0: 04ca e93e 1362 1b3e a3a0 333f b071 06bf
000003b0: a413 c03e 4b00 3f3d 8fe3 883e 0742 89bc
000003c0: 2803 12bf 34c8 633f afb7 fcbe a593 e2be
000003d0: 71fb bc3e dc16 a0bd ae0a babe cbf6 863e
000003e0: 3076 a43e 4a11 f03e 4246 3c3e f694 15be
000003f0: 144a e03e d2be 403e b8d3 233e 5fad 47be
-0.122450516 0.052578297 0.38468713 -0.05597495 0.35224164 -0.25453022 -0.32783908 -0.8538503
0.10910028 0.050131932 -0.0812051 0.3946912 0.015691154 -0.15317748 -0.5364372 0.097236626
0.9454153 -0.5127419 -0.2586361 0.06314223 -0.107737884 0.20502217 0.4740871 -0.26339683
0.34904006 -1.1349252 0.6536045 -0.005582056 -0.33702922 0.39829537 0.40357187 -0.21664333
0.13786478 -0.49650055 0.09948379 0.53512055 -1.1310102 -0.05502573 0.0051640025 -0.21392405
0.23070644 -0.28438124 0.4066621 0.4131523 -0.18342571 -0.15641765 -0.43330175 -0.27762347
-0.18570605 0.0559736 -0.10554452 0.37671083 -0.04404974 0.266157 -0.614461 0.64318657
0.037367452 -0.4406793 -0.5164195 0.050125055 0.025852714 0.45100093 0.02808615 -0.18200861
-0.06646775 0.01522996 -0.33424523 0.291871 -0.952326 0.12047208 0.45534185 -0.12684672
-0.17618383 4.824996e-05 0.40960005 0.51738876 0.07557207 0.059626143 0.10622379 -0.45065653
-0.5279284 -0.3035375 0.033123735 0.27058667 -0.035885897 0.39557534 -0.12515227 -0.8963563
0.07497765 0.8499561 0.10647739 -0.40698284 -0.25076503 0.4470448 -0.3329714 -0.12130165
0.36625168 -0.15739156 0.48839828 0.43172204 -0.16713977 -0.028828612 0.10064293 0.528493
0.08054493 -0.36452106 -0.24691887 -0.48673046 -0.5342816 -0.007403818 -0.18293913 -0.7283546
-0.40899432 -0.9003718 0.085301794 -0.23035924 -0.13336258 -0.48172846 0.32162577 0.26554096
-0.025689397 0.9889049 -0.3251922 -0.14809665 -0.049007047 0.4729471 -0.21850143 0.22810966
-0.2076489 -0.734972 -0.42145374 0.4766484 0.91169053 0.13859946 -0.54795927 -0.058432497
0.46675035 -0.1084736 -0.3251595 -0.3493105 0.09929924 0.39222655 -0.2932604 0.43289137
-1.0051088 -0.32920384 0.3313436 -0.8309987 -0.04545381 -0.41979983 -0.19394362 -0.4411618
-0.24676472 0.58286905 -0.2650949 0.18987331 -0.8438036 -0.6722977 0.38803205 -0.77807283
0.28516638 -1.0806259 -0.7019045 0.15019138 0.31112465 -0.08792292 -0.11482358 0.16807242
-0.5047981 0.40993768 -0.5545305 0.375605 0.00043756867 0.0055038314 -0.06710133 0.36806437
0.39113444 0.4484822 0.11705144 0.25598076 -0.09079603 -0.09523064 -0.040134687 -0.22031997
0.052497655 0.06766095 0.0912541 -0.16869578 -0.57709146 -0.513027 -0.08063134 -0.1317704
-0.72022885 0.0035586893 0.7307229 0.08145948 -0.22723332 -0.6911202 -0.6518087 0.18012163
0.33840957 -0.024167746 -0.0126213385 -0.12103348 -0.035720296 -0.107379496 -0.4570607 -0.21813919
0.20112456 0.5736839 -0.55016917 -0.27841055 -0.026556965 -0.32390702 0.48263684 0.59111136
-0.63260406 -0.6376651 -0.33864486 0.2147046 0.68664694 0.19560634 -0.0017209458 0.010783316
-0.10548543 0.47399485 -0.26097646 -0.5017308 -0.38593122 0.070498586 -0.36660793 -0.22818168
0.45661938 0.15174131 0.7016699 -0.52517223 0.37514985 0.04663114 0.26736113 -0.016755117
-0.57036066 0.8897736 -0.4935889 -0.4425327 0.36910585 -0.0781686 -0.36336273 0.26360163
0.3212142 0.4688819 0.18386176 -0.14607605 0.43806517 0.18822792 0.15998733 -0.1949973

network.4.bias f4 [11]
00000000: 36d4 083e af24 91bd 4cc4 bb3d aee5 9d3c
00000010: 1213 45bd 6a59 b7bd 093e 913c 62b4 9ebd
00000020: b784 633d 6c36 103d 2a82 72bd
0.13362202 -0.07087075 0.091683 0.019274559 -0.04811389 -0.08952601 0.017729776 -0.07749249
0.05554649 0.03520815 -0.059206165
