NN-framework/data/best_model.onnx (onnx, 29182 bytes, 6 tensors)

network.0.weight f4 [64, 33]
000000 d5 31 30 be 07 75 1f be e0 1d 31 3e 73 c6 12 3e
       -0.1720651 -0.15571986 0.17296553 0.14333515
000010 6a 3c b9 3d 84 2b ac bd ee 98 af 3d aa 12 8f be
       0.09044726 -0.084067374 0.08574091 -0.27943927
000020 d0 8f 9b 3d b0 0a 6f 3e 1c d5 31 3e 87 b1 d8 3c
       0.075957894 0.2334392 0.17366451 0.02645184
000030 a2 21 9d 3d 99 e5 a7 bd f5 36 55 3e 8d f3 3e be
       0.076724306 -0.08198089 0.20821746 -0.18647595
000040 c7 09 58 3d 13 05 f6 3d cd f5 ae 3d 74 79 db bd
       0.0527437 0.120126866 0.085429765 -0.10716525
000050 bd 30 5a be c9 22 8d 3d 4b 0f 4b bd a2 f5 04 bd
       -0.21307655 0.068914 -0.04957513 -0.032460816
000060 24 31 09 be 9f 9c 0d be ac 8f b5 bc 0d 21 33 3c
       -0.13397652 -0.13829277 -0.022163235 0.010933173
000070 4d da ab bd 00 09 c7 bd 96 ae 0b 3e eb 8c 1d 3e
       -0.08391247 -0.097185135 0.13640818 0.15385787
000080 25 e3 c9 3d 14 e9 59 3d df 29 83 3d c4 07 83 3d
       0.098577775 0.053200796 0.06404471 0.063979656
000090 9c 33 fc 3d 54 99 30 3e de 1c 24 3e dc d1 37 3d
       0.12314531 0.1724599 0.16026637 0.044877872
0000a0 69 9e 89 bd 87 29 36 bd 9e fd c5 3d 5b be 5e be
       -0.067196675 -0.044473197 0.09667514 -0.21752302
0000b0 46 53 08 3e 48 4d 48 bd 9a 67 82 bd f1 24 12 3e
       0.13313016 -0.048901826 -0.06367417 0.14271905
0000c0 f5 c4 8b bd 04 1b 9b 3d a6 42 e4 3c ae e7 94 3c
       -0.06824676 0.07573512 0.027863812 0.01817688
0000d0 31 ec 84 3d 58 1d 2d 3d 13 32 34 be e2 86 08 3d
       0.064903624 0.042264313 -0.17597227 0.03333176
0000e0 a4 80 41 3d ac d8 09 3e 64 1a 3c be dc 3c 3b bd
       0.047241822 0.1346156 -0.18369442 -0.045712337
0000f0 b4 c4 d0 bd 03 3b 37 3d 93 5d ba 3b 63 20 05 3e
       -0.10193768 0.044734012 0.0056874244 0.13000636
000100 7a 61 91 3d 00 b2 14 be 80 c4 a9 3c 5d c7 06 3e
       0.0709867 -0.14521027 0.020723581 0.13161989
000110 21 5e d8 bc 88 13 f8 3c cc 02 11 be 45 ce b7 bd
       -0.026412072 0.03028275 -0.14161223 -0.0897489
000120 7e d1 17 be 2c 16 47 be 9a 71 59 3e a9 78 c2 3d
       -0.14826009 -0.19442052 0.21234742 0.0949567
000130 7d 3b 5b be 41 cd a9 3d 94 1d 13 be 79 4a ce 3c
       -0.21409412 0.08291102 -0.14366752 0.025181996
000140 9b 56 22 3c 17 28 77 bd 7e ca 2b 3d 65 04 04 be
       0.009908344 -0.060340967 0.04194116 -0.12892301
000150 d0 6f 5b 3e 16 cc b0 3d a9 4c ce bc d3 8d 8b bd
       0.21429372 0.08632676 -0.025183039 -0.0681416
000160 ab 5c 98 3d 0c f4 81 bd 96 26 24 3e e7 d9 f7 bd
       0.0743955 -0.06345376 0.16030344 -0.121021084
000170 5f 56 10 bd 08 38 20 be bc 71 c3 bc e4 5e 38 be
       -0.03523862 -0.15646374 -0.023857944 -0.18004948
000180 bd a4 27 3e 7f db b9 3d 74 46 1d bc fe aa f2 bc
       0.16371436 0.09075069 -0.009599317 -0.029622551
000190 6a 5f 2c bd 51 07 97 3d fd 48 1c 3e cd 89 0d 3d
       -0.04208318 0.07374442 0.15262218 0.034555245
0001a0 25 ab 59 3d 85 ec 27 bd cd 41 1e be 27 93 76 bd
       0.05314173 -0.040997047 -0.15454789 -0.06019893
0001b0 d7 0c f5 3d 58 fb e3 bd 20 80 1d be a7 54 52 bd
       0.1196534 -0.111319244 -0.15380907 -0.051350262
0001c0 8b a3 ff bd 82 43 92 3d 0e 00 37 be 30 2f 27 3e
       -0.12482365 0.07141782 -0.17871115 0.16326594
0001d0 09 2a 7a bd 42 3d 11 be 1a dd e7 3d 4d 0a b7 bd
       -0.061075244 -0.14183524 0.11321469 -0.089375116
0001e0 df a7 fc 3c 8b b8 ba bd c6 1b 10 be 7d 91 3e bd
       0.030841766 -0.0911723 -0.14073095 -0.046525467
0001f0 0f bf 17 be dc fd 11 be 12 2c 6b 3d 2b d0 19 3d
       -0.14818977 -0.14256996 0.057415076 0.03755204
000200 f7 28 10 be 78 ef 84 3d 66 a9 10 3e b2 05 23 be
       -0.14078127 0.064909875 0.1412712 -0.15920141
000210 ba 25 9a 3d b7 49 00 be f0 23 33 bd 40 f9 f8 bd
       0.07526727 -0.1252812 -0.043735445 -0.12156916
000220 da 74 a2 bd 74 87 cf 3d 48 6d d0 3d 9a 61 e0 bd
       -0.07932444 0.101332575 0.10177094 -0.10956116
000230 71 a2 b6 bd 50 cc 5e bc fc f3 8d 3d 64 76 2b be
       -0.08917702 -0.013598517 0.06931302 -0.16744381
000240 08 46 44 bd 98 92 20 be 5d 63 28 be 5a 7e 5a bd
       -0.04791835 -0.15680921 -0.16444154 -0.053343154
000250 2c f7 fb 3d d8 2b bf 3c 5e 66 84 bd 40 b9 b7 bc
       0.12303004 0.023336336 -0.064648375 -0.022427201
000260 56 21 1e 3e 80 99 e6 bd 9c d2 03 bd f6 2e 28 be
       0.15442404 -0.112597466 -0.032183275 -0.16424164
000270 48 53 0c 3d 1b 5e 2d be 5c 32 09 3e b6 e6 b5 bd
       0.03425911 -0.1693043 0.13398117 -0.08881895
000280 d1 ab cf bd e0 1f 12 3c aa 42 f1 bd 30 85 43 bd
       -0.10140193 0.008918732 -0.11780293 -0.04773444
000290 de 5b 0e 3e ea 5f 86 3e 50 dd c3 3b fb 3d e5 bd
       0.13902232 0.26245052 0.0059773102 -0.111934625
0002a0 d4 16 d9 bd 4f cf a0 3d 07 de dd bd de c7 12 be
       -0.10600057 0.07852041 -0.10833364 -0.14334056
0002b0 9f 10 87 3d 60 95 4e 3e f1 0a c2 bd a5 ee 83 bd
       0.06594967 0.2017417 -0.09474743 -0.06442002
0002c0 cb fa 2d 3e 7a cd 5d 3c 7e 03 12 3e 85 19 20 3e
       0.16990201 0.013537759 0.14259145 0.15634735
0002d0 5b 07 50 be 5c 26 2a 3d ed 3b e0 bc 1a 4e 40 3e
       -0.20315306 0.04154049 -0.027372325 0.18779793
0002e0 42 dd 5b bd 98 9c 9e bd f9 8f 1c 3e c1 59 4c bc
       -0.053677805 -0.07744712 0.15289296 -0.012472571
0002f0 e7 a0 bd bd 05 6b b6 bd fa 95 99 bd 77 42 02 3e
       -0.09259205 -0.08907131 -0.07499309 0.12720667
000300 72 5f 17 3e 3b 88 2d bd 7e c2 95 3d 43 b9 2f 3d
       0.14782503 -0.042366248 0.07312487 0.04290129
000310 9f 7e 5b be 54 19 04 3e c0 ae 23 3e a7 ae 1c 3e
       -0.21435021 0.12900287 0.1598463 0.15301
000320 07 6b e9 3d c1 2a 39 3d b8 9b 9d bc 6d 98 c5 bd
       0.11397367 0.04520679 -0.019239292 -0.096482135
000330 89 89 8f bd 64 93 08 3e 2f f4 1c be 0a 4c b5 3c
       -0.070086546 0.13337475 -0.15327524 0.022130985
000340 b0 15 1e be 95 d9 d5 bd 39 00 a5 bd 76 2f c3 bd
       -0.1543796 -0.10441891 -0.08056683 -0.09530537
000350 96 de 14 3e fb 4d d8 bd ef 34 d6 bd 94 21 0f be
       0.14538035 -0.105617486 -0.10459315 -0.13977653
000360 1d 07 ba 3d 15 6c 2a be 7e 7e 8b bd e9 9d 95 3d
       0.09083388 -0.16642793 -0.06811236 0.073055096
000370 7d a7 fe bd ec bd 8d 3d aa 4a 18 be 3f 7a 37 be
       -0.124342896 0.0692099 -0.14872232 -0.17917727
000380 96 e9 de 3c 18 5a 9a bc 53 bf 9c bd 0a 70 67 bc
       0.027210992 -0.018841788 -0.0765368 -0.014125833
000390 9e c7 ef 3d 1e c6 8c bd f8 88 a6 3d af d3 06 be
       0.11707996 -0.06873725 0.081315935 -0.13166688
0003a0 dd d4 88 bb 76 09 d4 3d 11 bb 10 bd 5e 98 84 bd
       -0.004175766 0.10353367 -0.03533465 -0.06474374
0003b0 1d 3a 4c be d5 72 99 bd 44 d3 9b 3d 26 c4 83 3b
       -0.19944043 -0.074926056 0.07608655 0.0040211855
0003c0 6a a3 0e 3d 7c c3 a7 3d e9 9e 3e 3e e4 a7 bd bd
       0.034823813 0.081915826 0.18615307 -0.09260538
0003d0 ca df 09 3e f5 36 b5 3d b6 40 83 3c eb 93 aa bd
       0.13464275 0.08848373 0.016022068 -0.08328994
0003e0 b2 c5 49 3d ac bd b2 bd d6 bc 90 3d ff f9 03 3e
       0.049260803 -0.08727583 0.070672676 0.12888335
0003f0 49 a9 a4 3d a5 2a 3a 3e 0b c4 ec bd 88 3f 74 3c
       0.08040101 0.1818033 -0.1156083 0.014907725

network.0.bias f4 [64]
000000 16 6b e7 bd c1 b3 33 be a9 30 5f 3d 8c 74 00 be
       -0.11299722 -0.1754904 0.054489765 -0.12544459
000010 dc b5 2f bd 3d 51 26 bd 98 33 18 be fd 05 17 3e
       -0.042898044 -0.04060482 -0.14863431 0.14748378
000020 eb 5a 8b bd 40 b5 3c 3d dc 63 cf 3d e4 d4 79 3d
       -0.068044506 0.04607129 0.101264685 0.060994044
000030 fc 8a df bd 7f 32 19 3d 60 ee 60 bd 97 3e 92 bd
       -0.10915181 0.037401672 -0.054914832 -0.07140844
000040 ce 50 84 3d 6c c5 63 3d b6 cf e4 3d 31 01 ab bd
       0.06460725 0.055608198 0.1117243 -0.083498366
000050 70 d9 a4 3d c6 d0 09 be 18 61 60 bd ec 01 cd bc
       0.080492854 -0.13458547 -0.054780096 -0.02502533
000060 04 7e ea bd 9d 04 0a bd 7b 0e 86 3b 1e 55 82 bd
       -0.11449817 -0.033695806 0.0040910817 -0.06363891
000070 eb c4 ec 3c 13 3e f8 3d d7 11 91 bd 4d 11 a2 bd
       0.028902492 0.12121215 -0.07083481 -0.07913456
000080 5d bc 31 bd fb 82 aa bc 8c e9 b4 3d 5b 65 3f 3e
       -0.043392528 -0.02081441 0.08833608 0.18691008
000090 5c 87 1a 3e 33 a5 0b 3d cc af ea 3d 0f 67 36 3e
       0.15090698 0.034093093 0.11459312 0.17812751
0000a0 6f 1f 72 bd 56 f8 0f be 83 06 0b 3e bc 9d aa bd
       -0.05911201 -0.14059576 0.13576703 -0.08330867
0000b0 6a 96 12 be 89 b4 f5 bd c1 0e 47 bd 9a 78 18 3d
       -0.14315191 -0.11997325 -0.048598055 0.03722439
0000c0 d6 c7 28 3e d5 f9 0f 3b 04 63 b5 3d 6b ce 1b 3e
       0.16482481 0.002196898 0.08856776 0.15215461
0000d0 3f 3d fc 3d ca 81 1a 3e ee 9b 2f be 3d ff e9 3d
       0.12316369 0.15088573 -0.17149326 0.11425636
0000e0 c1 a3 93 bc 87 c0 96 3d b6 93 21 3e f5 1c 12 bc
       -0.01802242 0.073609404 0.15779004 -0.008918037
0000f0 8d 0d 8c 3d 14 0d ff bd a0 03 17 3d 7e 76 18 3d
       0.06838522 -0.12453666 0.03686869 0.037222378

network.2.weight f4 [64, 64]
000000 d5 aa 01 3d d8 fa ef bd c9 51 cc bd 13 ee cf 3d
       0.03165706 -0.117177665 -0.09976537 0.10152831
000010 00 86 4e 3b 0f 5e 87 3d 55 f4 d3 bc db 91 00 be
       0.0031512976 0.06609737 -0.025873343 -0.1255564
000020 0a 58 73 3d 06 89 b5 bb 4d 03 23 be ec 28 bb bd
       0.059410132 -0.005540016 -0.15919228 -0.091386646
000030 72 18 b2 bd 54 d5 26 3e 81 19 17 bd 58 85 f0 bd
       -0.08696069 0.16292316 -0.036889557 -0.11744183
000040 7c f8 db 3d 36 8f c7 3d 84 6c 6c 3d ff 94 ac 3d
       0.10740754 0.09744112 0.057720676 0.08426856
000050 87 f6 42 3e 47 6b 3d be 60 91 1c be 8c 51 b4 bd
       0.19039355 -0.18497954 -0.15289831 -0.08804616
000060 07 c3 30 3c e6 67 02 be 15 9d 2d 3d 11 a5 2e bc
       0.010788686 -0.12734947 0.042386133 -0.010659472
000070 18 40 a9 3b 97 f4 75 be e7 e9 11 bc ed 2f 14 3e
       0.0051651113 -0.24019085 -0.008905864 0.14471407
000080 c8 f7 11 3e 92 80 40 bd 96 3f c2 bd 05 57 24 3e
       0.14254677 -0.046997614 -0.09484784 0.1604882
000090 48 69 0b 3e ea da e5 3c 3f ef 42 3e 39 81 22 3e
       0.1361438 0.028058488 0.19036578 0.15869607
0000a0 db e4 7b bd a2 4b 2a 3d 19 df b2 3d 51 8e ef bc
       -0.06149755 0.041576035 0.08733959 -0.029242666
0000b0 2c 3f b4 bd 23 c5 ca 3d df 7f 43 bd bb 1f 7c bd
       -0.088011116 0.09900882 -0.04772937 -0.061553698
0000c0 aa a2 ab 3d 95 96 de 3d a7 1e af 3d 69 1e 00 3e
       0.08380635 0.10868565 0.08550768 0.125116
0000d0 48 42 2a bd 79 71 fb 3d c8 34 11 bd ef 79 4e bd
       -0.041567117 0.122775026 -0.035450727 -0.050409254
0000e0 b0 01 a4 3d 16 bd 90 bd 64 6c 31 3e 13 7d d8 3c
       0.08008134 -0.07067315 0.17326504 0.026426828
0000f0 99 6c 03 be 44 04 88 3e ef 5e 8f bd 3c bc 84 bd
       -0.12834395 0.26565754 -0.07000529 -0.06481215
000100 18 82 f3 3d b2 bc cf bd 57 0d b9 bc ac 9e ab 3d
       0.11890048 -0.10143413 -0.022589369 0.08379874
000110 10 a2 9c 3d fc b5 3c 3d ff 8c b0 3d ca 8e 66 3d
       0.076480985 0.04607199 0.08620643 0.056288518
000120 ca 8a 84 bd 59 27 78 3d 3f 06 0f be 17 e9 95 3d
       -0.064717844 0.0605844 -0.13967226 0.07319849
000130 0f 13 91 bd 58 e1 33 3e af a0 27 be 5c c6 00 3e
       -0.07083713 0.1756643 -0.1636989 0.12575668
000140 8a 45 8e bd 6e a3 4f be c4 3b d7 3d 84 51 0e bd
       -0.06946857 -0.20277187 0.10509446 -0.034745708
000150 85 88 a6 bb 36 f1 2c bd c3 6a 8a 3d f8 b3 27 3e
       -0.0050821924 -0.042222224 0.067586444 0.16377246
000160 9b 0e 36 3e 82 8f e5 bc b2 81 3f 3b 86 f7 13 be
       0.17779009 -0.028022531 0.0029221592 -0.14449891
000170 59 38 8e bd 6e f7 27 3d 9a 23 0f 3d 12 23 29 3d
       -0.06944341 0.04100745 0.03494606 0.04129321
000180 78 93 80 3d 79 1d 1e 3e 1a af 4f bd 50 e6 e3 3d
       0.062781274 0.1544093 -0.0507041 0.11127913
000190 60 4d 7c 3d 84 a9 3e bd 4e e5 5d 3e e9 3b 66 3d
       0.061597228 -0.04654838 0.21669504 0.05620948
0001a0 4e 58 fa 3d 83 ac da 3d ba cc 15 be 2a 24 a1 3c
       0.12223874 0.10677435 -0.14628878 0.019670565
0001b0 36 af 38 bd 63 bb 2b 3e cf 20 06 bd 28 44 c4 3c
       -0.04508897 0.16770701 -0.032746132 0.02395828
0001c0 e3 fa 4c 3d 15 d2 78 bd 93 34 f3 3d d2 81 93 bd
       0.05004395 -0.060747225 0.11875262 -0.07202496
0001d0 ab 96 ae bd b3 17 32 bd 26 f9 e1 3d f2 6a 5c bd
       -0.085248314 -0.043479633 0.110338494 -0.05381293
0001e0 59 c2 82 3d db 09 5c bd 47 0b f7 3b 26 e4 10 be
       0.06384725 -0.053720336 0.007539186 -0.14149532
0001f0 57 84 cc 3d 92 c4 e5 3a 9c 82 a8 3d 35 d5 74 bd
       0.09986179 0.0017529896 0.08228037 -0.059773643
000200 a6 64 08 be de 95 70 3c 88 49 5a bd 00 60 a1 bd
       -0.13319644 0.014684169 -0.05329278 -0.07879639
000210 80 80 a6 3a 98 01 e7 bd 4c 81 ca 3d 86 2a fd bc
       0.0012703091 -0.11279601 0.09887943 -0.030904066
000220 bb a1 05 3e e5 d7 49 3e e3 bc bc 3d 36 c0 9a 3d
       0.13049977 0.19711263 0.09215715 0.075561926
000230 33 6a 46 3e 6f f8 04 bd 47 92 07 be 6e 78 ce bd
       0.1937645 -0.032463487 -0.13239394 -0.10081564
000240 d2 30 39 bd 8b 72 eb bd 96 78 3e bd f2 b8 22 be
       -0.045212574 -0.11496457 -0.04650172 -0.15890864
000250 dd 83 4d 3e 30 d9 1b 3e a5 68 e4 bc 2c 50 1e be
       0.20069833 0.15219569 -0.02788193 -0.1546027
000260 a3 ae 07 be b6 73 23 3c ff 9d 16 be 3a 65 06 3e
       -0.13250212 0.009976318 -0.14708708 0.13124552
000270 33 c4 a0 3d a1 08 31 bd 8d 1a a3 bd 96 b1 c0 bd
       0.07849922 -0.04322112 -0.079640485 -0.09408872
000280 01 3b 32 3e 65 66 1a be e5 a3 0a 3d 5a fa 34 bd
       0.1740532 -0.15078123 0.03384771 -0.044184066
000290 fd ee c6 3d b0 7b e7 bc f9 0d 86 bd 9f 8b 01 3e
       0.09713552 -0.028257221 -0.06545634 0.12650917
0002a0 ce ba 39 3d 20 10 c5 3d 73 d0 dc 3d 7a cd df bd
       0.045344166 0.09622216 0.10781946 -0.109278634
0002b0 1b 2a 39 bd 23 ff 04 be d3 e9 ac 3d 6a 1d 0c bd
       -0.04520617 -0.12987952 0.08443036 -0.03420774
0002c0 c6 34 29 3e 3b 73 87 3d e6 2e fb 3d d2 b5 0b 3e
       0.16524038 0.06613775 0.122648045 0.13643578
0002d0 30 31 8f bd e6 e7 02 3d b3 00 58 bd f1 0a 45 bd
       -0.06991804 0.031959437 -0.05273504 -0.048106138
0002e0 cc 35 9c bd 71 01 af bd 7a 81 90 bd 23 f1 07 3c
       -0.076274484 -0.08545197 -0.07055946 0.008297238
0002f0 ce 33 27 3e e7 2e 8f 3d a7 b9 1b 3d 65 9d 19 3e
       0.16328356 0.06991368 0.03801885 0.15001447
000300 e9 82 cc bd 97 77 24 bd 92 67 26 be 70 50 07 3d
       -0.09985907 -0.040153112 -0.16250446 0.033035696
000310 20 d5 a2 3c 7e 46 85 39 33 1c 4e 3d 87 ad 1f 3e
       0.019877017 0.00025420258 0.05031986 0.15593539
000320 70 86 c5 3b 27 15 5b 3d 3f 60 53 bd 48 c3 d1 bd
       0.006027989 0.05348697 -0.05160546 -0.10242325
000330 c5 88 03 bd c2 a4 9d 3d 48 f6 1a 3e d1 91 4c 3d
       -0.032112855 0.07697441 0.15133011 0.04994375
000340 41 6e 81 3d 39 a5 08 3e 4b 6e 59 bb 51 96 b7 3d
       0.063198574 0.13344277 -0.0033177312 0.089642175
000350 0f 7f 31 be 83 0b ab bc eb 2a bd 3d 89 7a 82 bd
       -0.17333625 -0.020879513 0.092367016 -0.06371028
000360 6e f5 f6 bc a3 19 6b 3d aa b3 f1 3d ad 18 a1 3d
       -0.030146327 0.057397496 0.11801846 0.07866035
000370 21 63 9e 3d eb c9 66 3e 59 29 9a 3c 6e 0f e9 3d
       0.07733751 0.22537963 0.018818544 0.11379896
000380 a2 da 43 bd 23 98 2c bd 36 11 5e 3d 38 21 0f be
       -0.047815926 -0.042137276 0.054215632 -0.13977516
000390 2c cf 18 bd 31 c6 8f 3d 24 bd e0 bd 99 3e e1 bd
       -0.03730695 0.07020224 -0.10973576 -0.10998268
0003a0 8f a6 14 3e 9e 9f 80 bd 4c f6 17 3e 02 56 4e bd
       0.14516662 -0.062804446 0.14840049 -0.050374992
0003b0 2b b3 ed bc 56 22 3b b9 bd af 1b bd 4a a2 9a 3d
       -0.029016098 -0.00017846501 -0.038009394 0.075504854
0003c0 ec f7 1a 3c 8e 54 26 3e 11 e0 11 3d 7c 7e ff bc
       0.009458523 0.16243193 0.035614077 -0.031188242
0003d0 b8 e1 ed bd bd ef 7a 3b 50 f3 d8 bd c5 53 47 3d
       -0.11615318 0.0038289868 -0.10593283 0.048663873
0003e0 16 0b 7c bc 85 00 cf 3d e2 78 7c 3d 3b 7a 3c bd
       -0.0153835025 0.10107521 0.06163872 -0.046015006
0003f0 d5 52 13 3e 29 9f 27 be 1a f2 a6 3d c2 65 57 bc
       0.14387067 -0.16369309 0.08151646 -0.01314682

network.2.bias f4 [64]
000000 c6 cd 87 3d 36 26 cc bd 8c e0 09 bb d0 50 af bd
       0.06631045 -0.09968226 -0.0021038381 -0.08560336
000010 f1 6b 4b bb ff a6 6e bc b4 2b f3 bd 9d 46 ca 3d
       -0.003103968 -0.014566182 -0.1187357 0.0987675
000020 6a 74 b1 3d 43 8c 63 bc 5c 65 fa 3d fd 58 e5 bc
       0.08664782 -0.0138884215 0.12226364 -0.027996534
000030 87 f3 a4 3d 29 a9 07 3e 60 f4 38 bd 46 3d 96 3d
       0.08054262 0.13248123 -0.04515493 0.07335906
000040 08 e8 a9 bd b3 50 72 bd ba 5b 13 3e bc 65 0a be
       -0.082962096 -0.059158992 0.1439046 -0.13515371
000050 48 01 96 bd 0c e8 d2 3d 4c 46 a4 bd 17 74 40 bd
       -0.07324463 0.10298166 -0.080212206 -0.046985712
000060 37 4c c4 bc 66 8c cb 3d 54 c7 a9 bd 76 de 92 3d
       -0.023962123 0.09938888 -0.08289972 0.07171337
000070 2c 0e df 3d 29 1c fa 3d 42 18 ae 3d 35 06 8e bc
       0.10891375 0.122124024 0.085007206 -0.017336944
000080 7c 39 a5 3d 22 5c 6b bb a7 11 3e bd 8b aa d5 3d
       0.08067605 -0.003591307 -0.046403553 0.10432919
000090 61 49 89 bd 3b fa 7e 3c 1a c6 9d 3d 7d 3d 87 bc
       -0.06703449 0.015562589 0.077038005 -0.016508812
0000a0 e7 7d bd 3c c0 8b ca bd 42 54 01 3e 0d 2f 5e 3d
       0.023131324 -0.098899364 0.12629798 0.05424409
0000b0 76 6e e1 3c 52 a2 01 3e 64 0c d6 bc a2 49 a3 3c
       0.027518492 0.12659577 -0.026128955 0.019932572
0000c0 7a 16 93 3d 1c 26 86 bd e9 f6 be 3d 50 58 01 bd
       0.071820214 -0.065502375 0.09324438 -0.031578362
0000d0 af 95 56 bd 58 3f e5 3d c1 fd cb 3a 76 a6 55 bd
       -0.052388843 0.111937225 0.0015563295 -0.052160703
0000e0 5c 14 c3 3d fb b2 bc 3d fc a8 6f 3c ef bb 9f bc
       0.095253676 0.09213825 0.014627691 -0.019498793
0000f0 c0 5c cb bd ed ab f0 3d 05 20 e0 bd 57 cb bd bd
       -0.099298 0.11751542 -0.10943607 -0.092672996

network.4.weight f4 [11, 64]
000000 91 f3 2d bc 53 f4 2c 3d 69 5f 8a 3b 95 52 b2 bd
       -0.010617153 0.042225193 0.0042227996 -0.087071575
000010 a3 6c 70 3d 0c c4 2d 3d 8b 44 e9 3d 86 94 66 3d
       0.058697354 0.042423293 0.11390027 0.056293987
000020 04 47 19 be 00 53 9f 3d 19 19 5c bd d2 0e 32 3e
       -0.14968497 0.07779503 -0.053734872 0.17388466
000030 98 33 af 3c 11 53 87 bd f4 58 90 3b e1 3f c4 bd
       0.021386907 -0.066076405 0.0044051353 -0.095824964
000040 fb ba bd 3d f4 20 d8 3d d5 a2 db bc 5c e4 64 b9
       0.09264179 0.1055316 -0.026811043 -0.00021828845
000050 1a ad 99 3d 9e f2 0e be 31 8a c0 3d 56 ff 0e 3b
       0.0750372 -0.13959739 0.09401358 0.0021819673
000060 e7 3e 2e bd 7a 8a 93 be 56 9d e5 bd c1 7a c7 3c
       -0.042540457 -0.28816587 -0.1121165 0.024350526
000070 c2 ce cf 3d 65 02 21 be ab 2b 0d be 32 76 70 bd
       0.10146858 -0.1572357 -0.1378619 -0.05870647
000080 2f 50 4d ba b8 c6 e1 bd 72 13 2d 3c 9c 2f d9 3d
       -0.00078320777 -0.11024231 0.010563718 0.10604784
000090 a7 00 af 3c 0b 6a 66 3d 4a bb a4 3d 26 8d 49 3e
       0.021362616 0.056253474 0.08043535 0.1968275
0000a0 fd 2d 94 bd 79 e8 e7 bd ee 1a 42 bd c7 90 db bd
       -0.07235334 -0.113236375 -0.047388963 -0.107209735
0000b0 09 ed 98 3c 7d aa 9b 3d 0c 2a 9a bd 0c 7b 98 bd
       0.018667715 0.076008774 -0.07527551 -0.07445344
0000c0 11 2d a6 bd 88 5d ce 3d 4a b0 58 3d db 02 7e 3d
       -0.081140645 0.100764334 0.052902497 0.062014442
0000d0 cd 39 5e 3e 32 71 8f 3d 46 0d f7 bd e1 62 32 be
       0.21701737 0.07004012 -0.120630786 -0.17420532
0000e0 5a 7d 8e bc ff e5 d5 3d e2 86 c0 3d 6b 13 18 3e
       -0.017393757 0.10444259 0.09400727 0.14851157
0000f0 cc be 1f be ac b4 fe 3d cc dc f5 bd 8a aa ff bd
       -0.15600127 0.12436804 -0.12005004 -0.124836996
000100 bf 0e 82 3d 24 c3 eb bb 87 56 0b be 72 f7 2a 3c
       0.06350469 -0.0071948934 -0.13607226 0.010434972
000110 88 63 8e 3d ad 12 0a be 66 32 7c 3d ff 1f 0a be
       0.06952578 -0.13483687 0.0615715 -0.13488768
000120 4c 05 6b 3d a1 b0 08 3e fe f6 8d 3d f7 08 2f 3e
       0.0573781 0.13348629 0.06931876 0.17093264
000130 44 d6 ed 3d 38 e3 a1 bd 08 f2 3e be b4 aa 17 3e
       0.116131335 -0.07904667 -0.18647015 0.14811212
000140 5d 0e 8c 3d d3 fb da bb ca 9f 18 3e 21 e7 03 bc
       0.06838677 -0.006682852 0.14904705 -0.008050711
000150 4a 88 e8 3a d7 43 f3 3d 0a a3 0d be f1 fc ed 3d
       0.0017740813 0.11878174 -0.13831726 0.1162051
000160 de 4b dc bc bb 49 13 bd 58 b1 a6 bc d2 55 19 3d
       -0.026891645 -0.035958987 -0.020348236 0.03743536
000170 89 61 7c bd 92 16 c1 bd be a8 0c bc ca bb 0d 3e
       -0.061616454 -0.09428133 -0.008585153 0.13841167
000180 46 99 ac bd c4 7f 85 3d 9c fb 69 3c f0 6d 4b be
       -0.08427672 0.0651851 0.01428118 -0.19866157
000190 17 b1 1d be 3d 06 12 be a1 94 1f be 6e 56 f2 3d
       -0.15399586 -0.14260192 -0.15584041 0.118328914
0001a0 6e 9f de bd 01 a0 c7 bd 91 43 5a bd df 89 75 3d
       -0.108702525 -0.09747315 -0.053287093 0.059945937
0001b0 27 47 80 bd 7a a1 23 bd 4a 10 10 3e 73 90 b7 3c
       -0.06263571 -0.039948918 0.14068714 0.022407746
0001c0 b0 7b 00 3e 4c e4 c9 3d a6 14 09 3e 18 c3 d7 3c
       0.12547183 0.09857997 0.13386783 0.026338145
0001d0 f2 07 aa bd 91 c2 ba bc 02 9d 8b 3d 0f 90 b0 3d
       -0.08302297 -0.022797855 0.06817056 0.08621227
0001e0 a5 a0 f2 bd 1d 23 06 be 78 4e 3d bc 9a 25 29 be
       -0.11847047 -0.13099332 -0.011554353 -0.1651825
0001f0 6d 40 d9 bd e2 a5 c7 bd ee 24 8e 3d c0 88 a5 be
       -0.10607991 -0.097484365 0.069406375 -0.32330894
000200 3d a3 04 3e 5f 19 f7 bd e4 e9 22 bc 0a e1 3a bd
       0.12952895 -0.12065386 -0.009943459 -0.04562477
000210 29 e6 6b be b8 92 9c 3d 57 dc 7e 3d 4f 89 00 bd
       -0.23037018 0.07645172 0.06222185 -0.031380948
000220 17 5d f0 bb 2a cd 41 3d 22 e3 24 3e af 14 76 3d
       -0.007335316 0.0473148 0.1610227 0.06007832
000230 58 be a2 3d 20 5d df b9 e6 03 af bc 09 46 11 3e
       0.079464614 -0.00042603258 -0.021364164 0.14186873
000240 eb 45 01 3d b8 ff 52 3d bc 7a b7 bc 5b eb d1 3d
       0.03156082 0.051513404 -0.022397391 0.102499686
000250 83 16 56 3d 14 db ab bd 68 9c 20 3e 90 f2 31 be
       0.052267563 -0.08391395 0.15684664 -0.17377687
000260 dc 6f bb 3d 9b 74 23 3c b0 64 81 bc 10 76 69 3e
       0.09152195 0.009976531 -0.015795082 0.22798944
000270 1c a7 3e be 05 2a ec 3d eb 88 e7 bd 3f b2 ea bc
       -0.18618435 0.11531452 -0.11305412 -0.028649447
000280 9f f8 a9 bc 84 9a 8d be 33 4d 88 3c 11 8e 29 3e
       -0.020748435 -0.2765695 0.016638374 0.165581
000290 a0 ad 06 39 e8 0b 04 be 8a 97 e8 3c c6 89 0a bd
       0.00012843916 -0.12895167 0.028392572 -0.033822797
0002a0 d0 43 a0 3c 37 4e 29 3e a0 4d 12 3e 9b 07 26 3d
       0.019563586 0.16533743 0.14287424 0.040534597
0002b0 67 c0 0f be 7f 95 3e bd e3 80 e7 bd 88 ae 73 bd
       -0.1403824 -0.04652929 -0.1130388 -0.059492618
0002c0 29 e4 39 3e b8 d2 14 bd 37 7e 73 be f6 17 ff 3c
       0.18153442 -0.03633377 -0.23778616 0.031139355
0002d0 ad a0 d5 39 5c 26 cc bd 9f 85 20 bc 72 a2 f0 bd
       0.0004074624 -0.09968254 -0.009797483 -0.11749734
0002e0 82 b0 91 3d 39 94 ef 3d 27 ea 5d bd 77 d9 d8 3c
       0.07113744 0.11698193 -0.054178383 0.026470883
0002f0 e7 74 50 be d5 ee ae bd 1c bc 2c ba a6 a3 8c bd
       -0.20357095 -0.08541647 -0.000658931 -0.06867151
000300 a4 b8 2e bd e9 13 ec 3b 8e ce 55 be 7d d1 9b 3d
       -0.042656556 0.007204522 -0.20879576 0.07608316
000310 c5 2e 4c 3e c4 9e e2 bb 32 35 e8 3d b8 78 5d bc
       0.19939716 -0.006915899 0.11338271 -0.013517551
000320 02 3c b8 3d dd 57 95 be 8c 07 e7 3c ae c1 e0 3c
       0.089958206 -0.29168597 0.02820184 0.027436104
000330 1c dc 74 ba 50 ff 07 3e 31 81 cd 3d cd c2 e1 3d
       -0.000934066 0.13280988 0.10034407 0.110234834
000340 64 61 1e 3e 15 bc b6 3c e0 29 fb bd 39 a0 aa 3d
       0.15466839 0.022306481 -0.122638464 0.08331341
000350 27 f7 2a 3c 9c ea c6 bd 69 a2 2a bc b9 f7 8a bd
       0.010434902 -0.09712717 -0.010414698 -0.067855306
000360 32 55 b8 3d 95 b5 44 be 20 84 06 3d b1 81 b8 3d
       0.09000625 -0.19209893 0.032840848 0.09009112
000370 01 59 1e 3e 1d 6f 34 bd 51 dc 33 bd 23 1c e7 bd
       0.1546364 -0.04405128 -0.043911282 -0.112846635
000380 0c 18 f9 3c 2d 8e a1 3d 02 fa 0b be 13 a9 08 3e
       0.030406974 0.07888446 -0.13669589 0.13345747
000390 09 1e 13 be 56 e5 35 3e c4 49 19 3e 54 40 4b be
       -0.14366926 0.17763266 0.14969546 -0.19848758
0003a0 df ad e6 3d 91 80 a4 3c 0a db 3c be b7 75 5b be
       0.11263632 0.020080836 -0.18442932 -0.21431623
0003b0 3d 8c 56 3e ff c5 9a bd a2 d9 1c 3e 03 ca 1e 3d
       0.20951934 -0.07557296 0.15317395 0.038766872
0003c0 7f 32 4c be 60 55 cf 3b 4f aa 9d 3d a7 8b ac 3b
       -0.19941138 0.006327316 0.076984994 0.0052656713
0003d0 3b 28 09 3c 1c a8 f3 3d 1a 04 35 3e 35 18 2c bd
       0.008371408 0.11897299 0.17677346 -0.042015273
0003e0 f1 14 fc bd f4 b8 00 3e 09 82 14 be 6d e6 d5 3d
       -0.12308682 0.12570554 -0.1450273 0.10444341
0003f0 45 32 40 3d 9b 57 24 be a8 16 d9 3d ad e5 0f be
       0.04692294 -0.16049044 0.106000245 -0.14052458

network.4.bias f4 [11]
000000 f8 1d a6 3d 43 9d aa bb 6c 35 6d bc c6 33 32 bd
       0.08111185 -0.0052067353 -0.014478069 -0.043506406
000010 7e 5e a2 bd cf ee 70 3d ee 7d 93 3c aa b3 40 bd
       -0.07928179 0.058821496 0.018004384 -0.04704634
000020 51 2f e6 bd 28 56 bd 3d 35 29 81 3d
       -0.11239494 0.092449486 0.06306688
