NN-framework/data/best_model.pth (torch, 30886 bytes, 6 tensors)

network.0.weight f4 [64, 33]
000000 8c 70 d6 3d be a2 29 be b7 c4 f9 3d 8c e5 84 3d
       0.10470685 -0.16565987 0.121957235 0.06489095
000010 8d 51 ac 3e 6f 55 d9 bd 4f d8 a5 bd ef 78 aa 3e
       0.33655968 -0.10611998 -0.08097898 0.3329539
000020 95 54 4c 3e d6 1a 01 be 8f 1f 1f 3e d7 55 45 be
       0.1995414 -0.12607893 0.15539382 -0.19271027
000030 f2 16 90 be da dd ee 3e 1f 15 84 be fd 34 a0 be
       -0.28142506 0.46653634 -0.25797364 -0.31290427
000040 dc ea 6e 3e 67 78 13 be 5c 8e 0c be 72 17 09 be
       0.23331779 -0.14401399 -0.13726181 -0.1338785
000050 93 f0 04 3d f5 c2 b8 bd f1 92 95 bc 73 bb 0a 3e
       0.032455992 -0.0902156 -0.018258544 0.13548069
000060 24 74 14 3d e6 58 59 be 72 7a d6 3e 90 e3 c1 3d
       0.036243573 -0.21225318 0.41890293 0.09467232
000070 11 80 92 bd ad 31 ca bd 8c 7f 80 bd 98 4e 99 be
       -0.07153333 -0.09872756 -0.06274328 -0.29942775
000080 7d 46 2c bd ea 20 9d 3e 1e c0 f4 bd 8e 62 b7 bd
       -0.04205941 0.30689174 -0.11950706 -0.08954345
000090 97 9f 69 be 3b 12 11 be d7 b0 c3 bc 0f 72 5d bd
       -0.22814785 -0.1416711 -0.023888035 -0.054063853
0000a0 ac b7 99 3e 1e c5 44 3d 19 18 13 3d f4 21 1d be
       0.30022943 0.048039548 0.035911653 -0.15344983
0000b0 e0 6b 0d be 80 01 4a 3e 2b c4 cd 3d 50 40 8f 3d
       -0.13810682 0.19727135 0.10047182 0.069946885
0000c0 6f ec fd bd bd e1 b0 3c f2 a5 61 3d 98 ac 32 be
       -0.12398612 0.021592015 0.0550899 -0.17448652
0000d0 95 08 b4 3e f7 06 84 3e 16 bb 95 3e b0 4b b8 be
       0.35162798 0.25786564 0.29244298 -0.35995245
0000e0 53 68 1d 3e ee 84 8e bc e7 3b 2c 3d 2d 41 98 3d
       0.15371828 -0.01739737 0.042049315 0.07434306
0000f0 9c 96 87 3e f6 22 5c 3e 3f 0b 03 be 27 6d 67 3c
       0.26482093 0.21497712 -0.12797259 0.014125145
000100 01 aa 27 3e 08 a1 8d 3d c0 00 fe bd 43 0f 61 be
       0.16373445 0.0691548 -0.12402487 -0.21978478
000110 ab 46 92 3c e7 10 bd be 3f f5 8c 3d fc 02 92 3e
       0.017855963 -0.36926958 0.068827145 0.28517902
000120 b3 33 41 be 43 0e d2 3d 10 62 48 3e 2d 23 b2 bd
       -0.18867378 0.102566265 0.19568658 -0.086981155
000130 db 90 55 be cf c7 a2 be 15 d0 da 3c 8a 49 f5 3b
       -0.20856039 -0.31793067 0.02671055 0.007485573
000140 1a b8 30 3e 36 97 d9 bd fd b9 0b 3e 45 2a b6 3d
       0.17257729 -0.10624544 0.13645168 0.08894781
000150 8c 0a 9c 3e c1 5d c1 3d 65 fd 77 3e 11 aa 74 3d
       0.30476797 0.0944171 0.24217756 0.0597325
000160 59 7a b3 bd f5 6c 67 be bc c5 fc bd d8 b1 7f be
       -0.0876357 -0.22600158 -0.12342402 -0.24970186
000170 ff 22 96 3e d2 06 50 be e9 70 c9 be 09 fb 65 bc
       0.29323575 -0.20315102 -0.39343956 -0.014036902
000180 1c 7d d2 3e 7a 10 70 3d 32 22 4c 3e 34 d7 57 3e
       0.41111076 0.058609463 0.1993492 0.21078187
000190 5e 89 95 be 45 8b a2 be 37 2c f0 bc 9e a4 c9 be
       -0.29206365 -0.3174688 -0.029317958 -0.39383405
0001a0 b2 a3 6e 3d 6b c2 81 3e 62 11 4b 3e 5b f7 8a be
       0.05826158 0.25343642 0.1983085 -0.27141842
0001b0 0b 4d 53 3e 2e 3a 8d bc c8 30 ab be 92 0a 2d 3d
       0.20634858 -0.017239656 -0.33435655 0.04224641
0001c0 bf 2e 88 be ab f3 4c 3d 19 80 7e 3e 77 e9 d8 bd
       -0.26598164 0.050037067 0.24853553 -0.10591405
0001d0 9c ad 0c 3e 9c de 8f 3d d2 7a 37 be ac 4b 9b 3e
       0.13738102 0.07024881 -0.17917946 0.3033117
0001e0 51 17 0b be 13 8d 29 3e 07 ed 86 3e 58 aa 86 be
       -0.13583113 0.16557722 0.26352713 -0.26301837
0001f0 fe d7 c5 bc ad 94 0e 3e 9e 77 c9 be f5 e7 c1 3d
       -0.024150845 0.13923903 -0.39349073 0.094680704
000200 b3 16 90 3e 21 20 61 3d aa da a2 3c f9 db e6 3d
       0.28142318 0.05496228 0.019879658 0.11272425
000210 55 fe bd 3d 03 e8 fd 3d 74 dc aa be 3e db 48 3e
       0.092770256 0.12397768 -0.33371317 0.19614884
000220 ba 2a e6 bd ba 75 a1 be 6c a8 0c 3e df 09 82 3e
       -0.11238618 -0.3153513 0.13736123 0.25398156
000230 0d 4f 90 3e 41 4d d6 3c 5b e8 d9 3d 30 18 a8 be
       0.2818531 0.026159884 0.106400214 -0.32830954
000240 fe 21 42 be b5 be 08 3e 8d 66 c0 be 04 9a a9 bc
       -0.1895828 0.13353999 -0.3757824 -0.020703323
000250 5d 46 9e be 5a 2f 84 3d 73 d7 ab be b2 40 22 3e
       -0.30913058 0.06454344 -0.33562812 0.15844992
000260 53 f5 18 be 8d 9b 7e 3e a1 f5 52 be af 80 e3 3d
       -0.14937334 0.24864025 -0.20601512 0.11108529
000270 52 a3 13 3e 59 c7 09 3e ab 24 3f 3c 1e 27 f5 3d
       0.1441777 0.13454951 0.011666457 0.11970352
000280 5c 56 b4 bd dc c8 76 3e 88 75 96 bc 92 00 87 3d
       -0.08805534 0.2410006 -0.01836659 0.06591906
000290 e9 cc ff 3d d8 58 9b 3e 81 2b f8 bd 4c 7e 52 3e
       0.124902554 0.3034122 -0.12117673 0.20555991
0002a0 3e 30 1a be ab cb c4 be 85 7e 3d 3e 8f 5c 0c be
       -0.15057465 -0.38436636 0.18505295 -0.13707183
0002b0 18 87 b5 3e 8f 90 34 bd 8d 41 a9 bd 1a 47 83 3e
       0.3545463 -0.044083174 -0.08264456 0.25640184
0002c0 bf 8b b2 3e 21 0f 9d 3d 9b 9b 3b 3e 70 f9 cb be
       0.34872243 0.07668901 0.18321078 -0.39838743
0002d0 21 71 73 bd 0e ae 31 3e 2f 41 53 3e 89 99 bd bc
       -0.05943406 0.17351553 0.20630334 -0.0231445
0002e0 3a bd a8 3e 2f 40 66 be b1 3c 19 3d aa eb f5 be
       0.32956868 -0.22485422 0.037411395 -0.4803136
0002f0 f8 2e b0 3d 47 28 8d bd 7e a4 2e bd e0 c4 f2 bd
       0.086027086 -0.06892448 -0.04263734 -0.11853957
000300 c1 d6 41 3e b6 e5 96 bd 68 3c 76 be 35 b8 45 be
       0.18929578 -0.07368033 -0.2404648 -0.1930855
000310 fa 38 7b be bc 6b 8b be 93 75 30 be 43 3a 98 3d
       -0.24533454 -0.27230632 -0.17232351 0.074329875
000320 10 86 ea bd c2 8f 92 bd 5a 8f 83 bd ad 6d 21 be
       -0.11451352 -0.07156326 -0.064238265 -0.15764494
000330 03 81 31 3e 35 f1 04 bc 83 28 80 3e b4 7e 90 3e
       0.1733437 -0.008114149 0.25030908 0.28221667
000340 53 08 ad bc 38 7c 63 3e 22 c3 53 3d bd 82 0a 3e
       -0.021122133 0.22215354 0.051699765 0.13526435
000350 00 b3 b2 3d 4c 18 ff bb 13 aa 22 3e b6 ea 83 3e
       0.08725548 -0.007784879 0.1588519 0.25765008
000360 23 1e eb 3d bc cb 5d be 76 53 68 bd 85 a5 81 3c
       0.114803575 -0.2165975 -0.05672022 0.015825996
000370 a2 8e 04 bd c3 65 5f be 8b 3f d3 3d e1 8e 9f 3d
       -0.032362588 -0.21816163 0.10314854 0.07790924
000380 0b c8 00 3c 1e 21 70 bd b1 59 e3 3d e7 ee 8b 3e
       0.007860194 -0.058625333 0.11101092 0.27330706
000390 86 09 27 3b cd 1a 19 be 0d e7 59 3e ea bd a8 3e
       0.0025487854 -0.1495163 0.21279545 0.32957393
0003a0 61 3a 33 be 6a d2 2a be 16 ac c6 3e 3c 92 56 3e
       -0.17502739 -0.16681829 0.38803166 0.20954221
0003b0 c3 b2 86 3e af c5 37 be 02 08 b3 3d 94 df 85 bd
       0.2630826 -0.17946504 0.08741762 -0.06536785
0003c0 74 c8 c3 bc f8 ad eb bd 08 2b 13 be bb 5b 8d be
       -0.023899294 -0.11507791 -0.14371884 -0.27609047
0003d0 90 e7 14 bd 06 18 67 bd 95 21 fe be c6 77 8a 3e
       -0.036353648 -0.056419395 -0.49634996 0.27044505
0003e0 9a 2e 44 3e c0 8e 2e 3e f3 70 64 bd c9 bc fd 3d
       0.19158402 0.17046642 -0.05577178 0.123895235
0003f0 9c 45 f2 be 4f 7d 5f 3e 4f 3f a1 bd 97 1c 91 bc
       -0.47318733 0.21825145 -0.07873403 -0.017713828

network.0.bias f4 [64]
000000 d4 db f7 3d aa 78 1b be df d7 d8 3d 2a 72 18 bd
       0.12102476 -0.15182748 0.10588049 -0.03721825
000010 ac 65 05 3e bf c8 08 3e 9f 0c 3d be 74 be fe bc
       0.13027066 0.13357829 -0.18461846 -0.031096675
000020 ba a4 08 be 2c 71 93 3d 1b e3 27 be 1f 2d 7e 3b
       -0.13344088 0.0719932 -0.16395228 0.0038784218
000030 73 3c 5d 3d 5b 85 af 3d 1f a0 63 3c fc 23 16 be
       0.054012727 0.085703574 0.013893156 -0.14662164
000040 bd 88 d7 3c c9 8f 19 3e be ad 70 3b b4 99 dd bc
       0.02631032 0.14996256 0.0036724652 -0.02705083
000050 ee a3 72 be eb 2f d3 bd c7 f7 21 3e e7 36 94 3d
       -0.23695347 -0.10311874 0.15817176 0.07237034
000060 a7 3b 13 3e 0b 36 81 bd 8d f4 15 be f3 06 12 be
       0.14378224 -0.06309136 -0.1464407 -0.14260463
000070 90 31 2f bd c0 44 a8 bd 33 58 4a be 15 98 3a bd
       -0.042771876 -0.08216238 -0.19760208 -0.045555193
000080 9c 3b 26 be 0c ce 8b bd 1f ee ab bd 3f 4a b4 3d
       -0.16233677 -0.0682641 -0.08395027 0.08803224
000090 10 55 a6 3b e4 bf c0 bc ce 7b da bd 7b 26 2a 3a
       0.005076058 -0.023529 -0.10668145 0.00064907194
0000a0 d1 2e b9 bd 42 b4 b0 bd 0e c4 9e bd eb 68 dc bd
       -0.09042133 -0.086281314 -0.07752238 -0.10762199
0000b0 77 3d 33 3e 0e 9e af 3d fb 08 f5 3d 17 20 f1 3d
       0.17503916 0.085750684 0.119646035 0.11773699
0000c0 49 0b b5 3d 31 bc f4 3c 4d 12 0b 3e f0 27 76 3d
       0.08840043 0.029874893 0.135812 0.06009668
0000d0 c1 e9 7a 3d 87 7d d8 bd a5 01 74 bd 9f a8 28 3d
       0.06125808 -0.105708174 -0.05957188 0.041176435
0000e0 e9 3f 40 3e 35 c1 b1 3d ee f5 82 bd 57 aa a5 bd
       0.1877438 0.086794294 -0.063945636 -0.0808913
0000f0 06 39 c3 bd f9 5d b5 3d e8 47 0b 3e db 45 28 be
       -0.09532361 0.088558145 0.13601649 -0.16432898

network.2.weight f4 [64, 64]
000000 b6 27 c9 3e 62 ae 62 3e 50 f1 1f bd 03 52 c8 3d
       0.3928811 0.22136834 -0.039048493 0.097812675
000010 7e 14 df 3e 94 61 13 bf 7f 05 07 3e 50 4c db be
       0.43570322 -0.5757077 0.1318569 -0.4283166
000020 40 79 e6 3d 1c 54 c0 be 5b a3 16 3e 6e a1 98 3e
       0.11253595 -0.3756417 0.14710753 0.2981066
000030 f6 d5 ea 3d d1 2a c3 bd 56 67 55 be 98 ae 2a be
       0.11466591 -0.09529651 -0.20840201 -0.16668165
000040 a3 25 35 3e 62 08 5d be 8b ee 51 be c2 64 04 3c
       0.17690139 -0.21585229 -0.20501153 0.008080663
000050 cf 4f 75 3f fe 40 fc bd bb 8d 60 be 81 7f 40 3e
       0.95824903 -0.12317084 -0.21929066 0.18798639
000060 82 bb 74 3e f7 a5 99 be 6c 4c 48 be ce b6 b5 3d
       0.23899654 -0.30009434 -0.19560403 0.08872758
000070 c3 ff 87 bd 4d 7f 4b be 8c 39 ba be ed 68 10 bf
       -0.066405796 -0.1987278 -0.3637203 -0.56410104
000080 ab 10 9b 3e 0a da 51 3e f0 51 e5 bd 04 97 0f 3e
       0.30286154 0.20493332 -0.11197269 0.14022452
000090 0b cb 49 be 06 93 55 bc b8 8e 13 be 15 58 6a be
       -0.19706361 -0.013035541 -0.14409912 -0.22885163
0000a0 76 73 0c 3f 38 e8 d4 3c e1 e6 3c 3e f0 d8 78 3e
       0.5486368 0.025989637 0.18447448 0.24301505
0000b0 a2 ca 4c 3e 1c 08 a1 bc 4c 53 69 3e 72 41 1d 3f
       0.19999173 -0.019657187 0.22785681 0.61427987
0000c0 67 fe ba 3e 2e be 18 3f 3f 70 58 bc ed 4e c1 3d
       0.3652222 0.5966519 -0.013210355 0.09438882
0000d0 e2 a0 04 bd 3c a3 1e bd a6 4f fd 3e 7f 62 60 be
       -0.032379992 -0.03872989 0.4947483 -0.21912573
0000e0 2b 03 9c 3c 81 5f b5 3d e6 1d c2 bd f8 97 30 3d
       0.01904448 0.088561065 -0.09478359 0.04311368
0000f0 bc 8f 30 3e 8c 4a f2 bc 72 2b 79 3e 9a 42 ad 3d
       0.1724233 -0.029576562 0.2433298 0.08459969
000100 b5 c1 66 3e 1d ef a6 3d f1 7d 99 bd f5 ac 2a 3f
       0.22534831 0.08151076 -0.074947245 0.6667016
000110 cf fc 5c bb 23 86 25 3e 18 ef 92 bd 02 2f 23 bf
       -0.0033720022 0.1616445 -0.0717451 -0.63743603
000120 72 87 a3 bd 6f 30 cf 3d 62 76 66 3e 15 5e f5 bb
       -0.079848185 0.1011666 0.22506097 -0.007488022
000130 2c 05 ba bd 0f b9 1b be 52 4a ad 3d 3c 07 6d 3e
       -0.09083018 -0.15207313 0.08461441 0.23147291
000140 c4 b5 84 be 0f 1d 56 3e 05 90 30 3d 53 11 eb 3e
       -0.25919926 0.20909522 0.043106098 0.45911655
000150 f4 8d 7d 3e 98 61 41 3d 48 95 3c 3e df eb b7 3d
       0.24761182 0.047212213 0.18416321 0.08980536
000160 09 70 12 be cc 3f 8b 3e 2f f0 48 be 80 9a c8 3a
       -0.1430055 0.2719711 -0.19622873 0.0015304834
000170 26 20 28 3e 57 ad da 3e ce 9b fb bb 02 5c 5a 3e
       0.16418514 0.42710373 -0.0076784855 0.2132416
000180 ed 78 cd bd cd c8 dc 3d 8e cb e2 3d 9f 47 b8 3e
       -0.100328304 0.10780487 0.11073981 0.35992143
000190 9a 02 ab 3d 1b a8 20 bd 3d df 58 bf e3 6e bf be
       0.083501056 -0.039222818 -0.84715635 -0.37389287
0001a0 2a d9 a7 bb f3 a0 e8 3e e7 c4 ea 3d 9c 16 48 be
       -0.0051223235 0.45435295 0.114633374 -0.19539875
0001b0 7b d5 4b bd 4b 73 10 3c 8d 55 98 bd af 43 dc 3c
       -0.049764138 0.0088165505 -0.074381925 0.026887743
0001c0 12 64 28 3f a7 92 e0 be 64 ff 97 3e d7 de 23 3e
       0.65777695 -0.43861887 0.29687035 0.16002975
0001d0 38 b8 02 3c b5 9a ec bd 07 b3 0a 3f a4 55 84 bd
       0.0079784915 -0.115529455 0.54179424 -0.06461647
0001e0 c7 7a e6 be d9 3f a4 be 47 29 f3 bd 7c 91 99 3e
       -0.45015547 -0.32079962 -0.118731074 0.29993808
0001f0 d7 3c 82 bc 47 9e 08 3e 1c ca 91 be 15 4e 37 3e
       -0.015898151 0.13341628 -0.2847451 0.1790088
000200 74 55 af 3e c0 90 72 3e ca 1a 88 3e a6 32 a2 3e
       0.34244883 0.2368803 0.26582938 0.31679267
000210 8a 59 5c 3e 9f 83 b1 3e 37 fc 26 3e e0 39 ff bd
       0.21518531 0.3467073 0.1630715 -0.12462211
000220 78 19 36 3d 99 2e e3 bd cc c1 4e 3e 43 62 b5 3f
       0.044457883 -0.11092872 0.20191115 1.4170612
000230 40 1c 40 bd ba 9f 3b be 05 dc c5 3d 77 a5 25 3e
       -0.04690194 -0.1832265 0.09661106 0.16176401
000240 73 19 4a bc ae fe cc 3e 36 29 cf bb f2 59 b2 bc
       -0.012335169 0.40038055 -0.0063220514 -0.021771405
000250 7a 08 52 bd 8e e2 a2 bd fe 0d 0a bd 93 05 cd 3c
       -0.051277615 -0.07953368 -0.03370475 0.025027072
000260 45 d6 a6 be 15 92 5c 3e 1a 82 81 3a 80 c5 4f 3b
       -0.3258535 0.21540101 0.0009880692 0.0031703413
000270 c7 7b e2 be d6 16 23 3f 92 10 c1 be 37 90 34 3e
       -0.4423506 0.6370672 -0.37707955 0.17633139
000280 09 f0 07 be 10 1a 2c be b6 32 1e 3e 73 11 19 3e
       -0.1327516 -0.16806817 0.15449032 0.14948063
000290 2c f6 19 be 3b 08 ea 3d ce 7a 58 bf 5e bc e1 bd
       -0.15035313 0.11427351 -0.84562385 -0.11022256
0002a0 9e 13 94 be 5c 75 2d bf 43 2f 2f 3b 2f d3 71 3c
       -0.28921217 -0.677572 0.002673105 0.014759823
0002b0 51 10 53 3e 6c f1 b0 3c a9 b1 71 be 58 a0 95 3c
       0.20611693 0.021599494 -0.23602928 0.018264934
0002c0 e0 0a db 3e 9c 79 b7 be 9d cb 42 be 79 47 a8 3d
       0.42781734 -0.35834968 -0.19022985 0.08216757
0002d0 db 07 c3 bd 65 cb 2d be 32 22 df 3e 1b c9 c8 3d
       -0.09522983 -0.1697212 0.43580776 0.09803983
0002e0 b8 df 86 3b 12 73 55 3c f9 1d a6 bc 16 6e 14 3e
       0.004116025 0.013027923 -0.020277964 0.1449512
0002f0 7b d7 25 3d 13 00 c7 bc 64 a9 24 be ad 07 ad 3e
       0.0404887 -0.024292028 -0.16080242 0.3379492
000300 7b 12 a0 3e 45 4b 8d 3b e6 1d b8 3d 63 90 4e 3e
       0.312641 0.0043119513 0.08990078 0.20172267
000310 8a 62 99 be a2 88 7a bd 16 ba 2d 3d b4 60 81 be
       -0.29957992 -0.06116546 0.042413794 -0.2526909
000320 90 87 74 bd 29 4d 85 3e e6 e9 0e 3e 3a d8 19 be
       -0.059699595 0.2603543 0.13956413 -0.1502389
000330 8a f2 db bd 4a d6 ad be 5d 68 c0 bc ab 79 96 3d
       -0.1073962 -0.33952552 -0.023487264 0.07347425
000340 79 53 07 be d7 85 ef 3d 30 98 16 3c 00 c1 db 3e
       -0.13215436 0.1169545 0.009191558 0.42920685
000350 e3 21 5c 3f 02 25 80 3d 9a 5d 9e be 45 50 4c be
       0.8598921 0.06257059 -0.30930787 -0.19952495
000360 b9 47 b1 bd e2 40 3c 3d c7 79 97 be 76 03 84 bd
       -0.08656258 0.045960315 -0.29585096 -0.064459726
000370 8b 03 92 bd 21 f0 10 3e d9 d4 0a bd 7d f8 e6 3e
       -0.07129582 0.14154102 -0.033894394 0.45111457
000380 e7 2d f9 bd 98 75 8f bd 83 53 53 3e 4b ef 84 bd
       -0.12166958 -0.07004851 0.20637326 -0.06490954
000390 e4 ec c9 3d 26 60 b6 be ec 9a 65 3e 21 78 58 3e
       0.098596364 -0.3562023 0.2242238 0.21139576
0003a0 18 59 96 3e 53 a1 af 3e 7a 47 2c 3e 33 19 00 be
       0.29364848 0.34302768 0.16824141 -0.12509613
0003b0 ac c2 4b bc a0 66 0a 3e c7 ed 1c 3f 3e c0 d4 3d
       -0.01243655 0.13515711 0.6130032 0.1038823
0003c0 b1 6a 5c 3f 31 20 c9 be 79 17 a6 3d 7d f7 fe 3e
       0.861003 -0.39282373 0.08109946 0.49798194
0003d0 40 8d 96 3c 88 7b 53 3e 86 65 24 3f 12 31 42 be
       0.0183779 0.20652592 0.6421741 -0.18964031
0003e0 92 20 f4 3d ed ce 1c 3d 75 f3 6a bd 18 63 8a 3b
       0.11920275 0.038283277 -0.057361085 0.0042232387
0003f0 71 f3 41 be d1 0c 0d be 62 7d c5 bd fd 05 31 be
       -0.18940522 -0.1377442 -0.096430555 -0.1728744

network.2.bias f4 [64]
000000 12 ec 10 bd 37 16 11 bd e4 b9 bc 3d fa 3b 03 3c
       -0.035381384 -0.035421576 0.09215143 0.008009905
000010 89 00 a6 3d 2e 3a 04 3e 26 33 44 ba f0 bb 0e 3d
       0.08105571 0.12912819 -0.00074844284 0.0348472
000020 d2 49 10 3d f0 b2 00 be 4e 07 ca bc b2 3b d7 3d
       0.03522665 -0.12568259 -0.024661686 0.10509433
000030 78 f4 ec 3d ae 1c 4e 3d fa 47 51 bd 06 00 24 3e
       0.11570066 0.05032032 -0.051094033 0.16015634
000040 28 b4 86 3c bf 0f 2c 3d b4 dd 2b 3d 8e fc c9 3d
       0.016443327 0.042007204 0.04195948 0.09862624
000050 3d f4 61 3d 2c c1 ad bd f2 13 23 3e b8 bf 8f 3d
       0.055164564 -0.0848411 0.15925577 0.07018989
000060 17 22 57 3d 43 21 d3 bc d2 b3 30 bd 48 5d c4 bc
       0.052522745 -0.025772696 -0.04314024 -0.023970261
000070 01 a4 8b bd ac f4 07 3e 0d 90 3a 3e 86 09 c2 ba
       -0.06818391 0.13276929 0.18219014 -0.0014803864
000080 f9 bd 6f bd f5 4f 92 bd 32 9c 9c 3d 0b c2 fd 3d
       -0.05853078 -0.07144157 0.076469794 0.123905264
000090 6f 8e ef 3d 9e ac 29 bc d1 9b 89 bd e7 3b 56 3d
       0.11697089 -0.010356097 -0.06719173 0.05230322
0000a0 1b 96 c8 bd 7f 84 e5 3d 38 be 4c 39 de e4 f7 bd
       -0.09794255 0.11206912 0.00019525818 -0.121042
0000b0 bd 3b 22 bc f5 a1 12 be 41 08 d3 bd f3 2e 2b 3e
       -0.009901938 -0.14319594 -0.10304309 0.16717128
0000c0 62 97 04 3e 83 04 d5 3d c6 8b e2 3d d2 25 6c bc
       0.12948373 0.10401251 0.11061816 -0.014413314
0000d0 8f 6d f7 bc 27 a7 08 be 17 d8 21 3e e6 ce f2 bd
       -0.030203609 -0.13345014 0.15805088 -0.11855869
0000e0 50 70 a7 3d b2 9e f4 bd 37 26 73 3d ed ff 93 bb
       0.08175719 -0.11944331 0.059362616 -0.0045165927
0000f0 3d 5e e1 3d 95 b4 73 bd 49 20 11 3e 3a fb e3 bb
       0.11004303 -0.05949839 0.14172472 -0.006957439

network.4.weight f4 [11, 64]
000000 71 c1 2e be 83 10 aa 3e ba 67 44 3e f8 31 ba 3e
       -0.1706598 0.33215722 0.19180194 0.36366248
000010 fe a9 41 bd 49 35 8f 3e 2d 9b 7c be ec 63 31 be
       -0.047281258 0.2797034 -0.2466857 -0.17323273
000020 44 62 28 bc 1b 09 ee bd 34 ef d5 be cd 10 24 3e
       -0.010277335 -0.116228305 -0.4178406 0.16022034
000030 3b 40 1a 3f fb 2c ae be e6 50 f3 bd d1 fd fb 3e
       0.6025426 -0.34018692 -0.118806645 0.49217084
000040 ae f9 58 be 63 55 20 3e d3 87 c6 3e ed 03 3e be
       -0.21188995 0.15657572 0.387755 -0.18556185
000050 2c db 4d 3d 82 eb 2d bd 93 69 01 3f fe 35 c8 3d
       0.050257847 -0.042460926 0.5055172 0.09775923
000060 2b 58 7a be 85 53 a8 bf c7 42 06 bd d4 88 d0 3d
       -0.24447696 -1.3150488 -0.032778528 0.10182348
000070 fb a8 a8 be 06 21 1e bf 7c d7 16 3f fa de 72 3e
       -0.32941422 -0.6176914 0.58922553 0.23717871
000080 1a ca d8 3e 18 a9 01 bc 59 c3 95 be bd 6a bb 3e
       0.4234169 -0.00791385 -0.292506 0.36604872
000090 1e 1b c3 be 0a 4c 0d bf 1d 52 56 bf 5e 71 3c be
       -0.38106626 -0.5519415 -0.83719045 -0.18402621
0000a0 e3 09 04 bf 65 c4 de 3e 7c 48 bf 3d de 90 9d bb
       -0.51577586 0.43509212 0.09339997 -0.0048085293
0000b0 e0 7b 7b be d2 90 53 bf 5f 08 e7 bd 8a 5b 51 3e
       -0.24558973 -0.82642853 -0.112808935 0.20445076
0000c0 e3 35 b2 3e 91 cd 1e 3f f1 6b 00 bf d3 43 94 3e
       0.34806737 0.6203242 -0.50164706 0.28957996
0000d0 1b a8 63 bf 08 75 99 3d fd d1 c6 3e f2 10 59 bf
       -0.88928384 0.07493025 0.38832083 -0.8479148
0000e0 47 92 da 3e 23 83 ab be bd b7 1e be bf 31 6e be
       0.42689726 -0.33498487 -0.15499778 -0.23261164
0000f0 67 47 a3 be 36 5e 9b 3d 22 8e ea 3c ab 8f 81 be
       -0.31890413 0.07586329 0.028632227 -0.25304922
000100 19 47 ff 3e d0 53 86 bd c0 92 a0 be c2 3c ed 3e
       0.4985893 -0.06558955 -0.3136196 0.46335417
000110 17 b8 78 3d 01 1b eb be 8f 05 82 3d 39 25 75 bd
       0.060722437 -0.4591904 0.063487165 -0.05984995
000120 82 fa cb 3d a2 23 1e bf 82 81 ab be ff 7c 63 be
       0.0995989 -0.6177312 -0.33497244 -0.22215651
000130 0a 15 1d 3e 49 b9 1e 3e 41 74 49 bb 0d b6 23 3e
       0.15340057 0.15500368 -0.0030739459 0.15987416
000140 24 92 a6 3e 62 42 1d 3f 0a 95 ae be f8 2d 55 3f
       0.3253337 0.6142942 -0.34098083 0.8327327
000150 b5 81 14 3e bd 42 5f bf f1 7b c7 3e 36 9f a6 3e
       0.14502604 -0.8721121 0.38961747 0.32543343
000160 25 75 84 3e ad b4 35 3f fa 8c 22 be a3 3f e4 be
       0.25870624 0.70978814 -0.15874091 -0.445798
000170 7d 03 43 bf df f8 99 bf 3d 72 30 bf 48 97 a0 3a
       -0.761772 -1.2029074 -0.68924314 0.0012252117
000180 f7 1d 7e be 99 15 97 3d 1e 87 68 3f 3a 10 99 bb
       -0.24816118 0.07377166 0.9083117 -0.004671124
000190 65 ff 98 3e 5f 4f be 3d 97 19 93 3d e0 65 44 be
       0.2988235 0.092924826 0.07182615 -0.19179487
0001a0 1b 1f 39 3d 83 e7 b5 be 3d 2e a7 bd ed 94 54 bd
       0.04519568 -0.35528192 -0.08163116 -0.05189984
0001b0 a7 c0 be be 9f 69 62 3e b9 f7 2c bd 28 35 ce be
       -0.37256357 0.22110604 -0.042228434 -0.4027493
0001c0 1e 07 ca 3e ff 87 f4 be 61 57 69 be de 91 2e bf
       0.39458555 -0.47760007 -0.22787239 -0.68191326
0001d0 2f 61 52 bd 6f ee d1 bd d9 88 1f 3f 2b 00 6b 3e
       -0.051362213 -0.10250556 0.6231819 0.22949283
0001e0 a7 8e 49 3e 1c 7f 16 3e 5e d4 a0 be d5 d0 85 bb
       0.19683324 0.14696926 -0.31412023 -0.0040837326
0001f0 44 9a a9 3e 31 52 94 bd d7 d1 f9 3e 80 b1 eb 3e
       0.33125508 -0.07242239 0.48792908 0.4603386
000200 b8 4c fc be 2f 5f 41 3e 3b e8 94 3d cf 61 ec 3d
       -0.49277282 0.18883966 0.07270857 0.11542093
000210 80 b2 08 bf 24 71 54 3d 51 62 95 be 62 1b 22 3f
       -0.5339737 0.05186571 -0.29176572 0.6332303
000220 aa fe b5 be 09 b8 1f 3f c5 d0 17 be b9 8c 3d 3e
       -0.35545856 0.6239019 -0.14825733 0.18510713
000230 a9 3b 8a be 8c c3 f2 3e aa 50 e0 3d fd 46 85 be
       -0.26998642 0.47414815 0.109528854 -0.26030722
000240 38 ef 87 bf d9 c4 b1 be 1e 4b 60 3e 4d 4f 3f 3e
       -1.0619879 -0.34720495 0.21903655 0.18682595
000250 27 f0 5f bc 52 dc 0b 3f 66 fe 46 bf f2 7a 3d be
       -0.013668097 0.5463306 -0.7773193 -0.18503931
000260 5a c0 e7 be b5 a5 ca 3d 4c 73 27 3e 4d f6 32 bb
       -0.4526394 0.09894887 0.16352576 -0.0027307451
000270 88 1a 8b 3e b6 13 01 bf 14 12 0a 3f 7b 9e 59 3d
       0.2716868 -0.504207 0.53933835 0.053129654
000280 ec 26 51 3e 34 7d b5 3e 53 03 dd bd 42 46 9c bb
       0.20425004 0.35447085 -0.1079165 -0.0047691176
000290 5c c8 b2 3d d8 d1 01 3e 03 71 fa bd ab c6 07 bf
       0.08729622 0.12677705 -0.122285865 -0.5303752
0002a0 f8 e1 6c 3e 00 24 56 be db 50 eb 3e 08 61 24 3d
       0.23133075 -0.2091217 0.45960125 0.0401316
0002b0 02 22 ab 3e c8 9e 57 be 75 3c 73 3e c3 77 e9 be
       0.33424383 -0.21056664 0.23753531 -0.45599183
0002c0 2a 1f b3 3e 77 68 65 3d 93 61 0c bf 85 f4 d5 3e
       0.34984714 0.05600783 -0.54836386 0.41788116
0002d0 79 ad 89 bd 92 b8 28 3e f7 ae 70 be c6 7b 00 3f
       -0.067225404 0.16476658 -0.23504244 0.50188863
0002e0 b9 80 9e be 37 38 43 3f dd f7 ff 3d 1f f4 30 bf
       -0.30957583 0.7625765 0.12498448 -0.691225
0002f0 9b 94 87 3c 73 14 89 3d 3a 79 22 bf 7b a5 80 3f
       0.016550353 0.066933535 -0.6346623 1.0050501
000300 af 3c 01 be 4e 32 98 bd c6 6d 95 be 47 34 c7 3e
       -0.12620805 -0.0743147 -0.29185313 0.38907072
000310 fe 43 23 bf 95 dd 0b 3e b8 7c 14 3f d6 43 0e be
       -0.6377562 0.13658746 0.58002806 -0.13893065
000320 ac 6e a3 bd 92 e7 2c 3d 16 c7 0c be 06 b1 2d 3d
       -0.07980093 0.04221303 -0.1374782 0.04240515
000330 be 02 5c be ad 64 15 3d 41 95 0b 3d 30 0e 5b bd
       -0.21485421 0.036472965 0.034077886 -0.053480327
000340 40 4a 2c bd e0 51 0c be b5 8d e5 be 9e e3 e4 3e
       -0.042062998 -0.13703108 -0.44834676 0.44704908
000350 f3 81 c0 be 08 0b bc be dd ad 4f be 1f 44 ae be
       -0.37599143 -0.36727166 -0.20281167 -0.34036347
000360 73 a5 d4 3e 46 6e d9 be 39 7b 2a be 18 fd 23 3e
       0.41532478 -0.42466944 -0.16648568 0.16014516
000370 8f 11 37 3f 46 8a 77 3f 10 c7 17 3d 96 05 15 be
       0.7151117 0.96695364 0.037055075 -0.14552912
000380 f4 d5 8d 3e b5 49 53 bf f1 18 43 3e e0 fd ed 3d
       0.27702296 -0.82534343 0.19052483 0.116206884
000390 3d ae 8a bd fe 6b fd bd 26 0e d0 3e 48 9e 4f 3e
       -0.067715146 -0.123741135 0.40635794 0.20275223
0003a0 0a 5e 00 be 68 93 13 be ff 18 78 be 24 28 9b 3c
       -0.12535873 -0.144117 -0.24228285 0.018940039
0003b0 62 0d 1b be fd ac 97 bd d7 53 07 3d b5 a7 04 be
       -0.15141824 -0.07406042 0.03303894 -0.129546
0003c0 07 e7 ac be 92 2e f8 3d 6e 7a b2 be 5c f4 ed be
       -0.3377001 0.121182576 -0.3485903 -0.46475494
0003d0 a6 c6 ff bd a4 7a 89 bd f3 6d 89 bf 59 f0 3f 3d
       -0.12489061 -0.06712845 -1.0736679 0.046860073
0003e0 c0 a2 be 3e fa fc a1 3e 32 2c a0 3c b8 9a cb 3e
       0.37233543 0.31638318 0.019552324 0.3976648
0003f0 10 28 5e be e5 59 cd 3d c6 eb fe 3d bf ca 21 3f
       -0.2169497 0.10026912 0.12447314 0.6319999

network.4.bias f4 [11]
000000 43 6c d0 3c df 73 f6 bd d1 7f 03 be f6 46 a4 3d
       0.025442248 -0.120338194 -0.12841727 0.08021347
000010 88 93 ab bc d5 59 76 3c 34 64 54 3c 39 f8 d7 3b
       -0.020944372 0.015036066 0.012963343 0.0065908697
000020 07 fa 0e be 1f a3 91 3c e9 3a 19 be
       -0.13962565 0.017777978 -0.14963879
