NN-framework/data/best_model.pth (torch, 30886 bytes, 6 tensors)

network.0.weight f4 [64, 33]
00000000: feeb 06bb 8545 20be ee79 633b afa7 cfbd
00000010: fa2a 433c e519 503e 8fbb e43c a512 f93d
00000020: 5762 5a3e cac4 9fbd 0312 b9bd bb20 b43c
00000030: 761e 1f3e 336d 983d ff64 923d 2f80 763c
00000040: d4a0 67bc 183f fc3d ee57 7a3d a8f1 893d
00000050: da58 b6bc 347d b5bc 42ad 3e3e c5d6 3abd
00000060: c576 e1bd 42e6 f8bc 9001 26be cd7e fcbc
00000070: c824 39bc 6b5c 563e 8ffb ccbd 14f6 bcbd
00000080: dcd7 edbc d2cd a03d 11d1 c73c 3495 423e
00000090: 1d3d 193e 3460 343e 49ca edbd 5cc6 06be
000000a0: 289e 16bd 45d9 4c3d edeb 1bbe 3f9c fe3d
000000b0: 3be0 0dbd f110 01be 3779 493e 48ab 823e
000000c0: ec27 a53c ff70 c9bb 16d4 053e 05b3 64be
000000d0: 7895 173e 9c00 1fbe bf85 b9bd 2468 f1bd
000000e0: e7e7 80bd 1bd1 c13c fc57 05be 1239 3c3e
000000f0: 1c1a 92bc 3396 133e 3c4f e0bd 5536 1c3e
00000100: 4920 4a3d b214 3bbe 33bb 51bd 58e9 07be
00000110: 780b 623e 751b d0bd f4ad d3bd 9206 92bc
00000120: 86b2 cb3d 9d94 98bd c53a 81bc 5820 65bd
00000130: fc4f 8bbd 9d14 c33d 6d95 72bd c628 04be
00000140: 8a6a 7e3d b27f 6bbc e429 10be bfff 57be
00000150: f0f7 a7bc 718f 123e e79a 363e 6b3d 183e
00000160: 25af c63c f788 ec3d 7e20 8f3d cc78 19be
00000170: 08b4 60be 74db d43d 49d2 fd3d b39d 253e
00000180: fc75 10be d11a 8fbd f3b9 2abe e832 23be
00000190: fdfd de3d 5a14 3abd 79ae 1fbd 8ae7 31bd
000001a0: 8805 25bc 875b b7bd 0f79 ebbd 2760 f9bd
000001b0: 280d 383d 11b1 fb3d 9037 063d c7f7 5c3d
000001c0: e968 bebc 17c8 c9bd 74c5 2a3e 9a89 b13c
000001d0: 79d5 b33c 59ca d8bd 5d4b 58bd 3bf3 363e
000001e0: 5036 43bd c453 06be d518 3abe 35d2 42be
000001f0: 9105 193e 7ad4 88bc 8ab1 983b 2829 f2bd
00000200: f425 2a3e 5122 06be a764 e7bd 8c68 bc3d
00000210: 2300 12be b033 22be c7ad 17bc beae 63bd
00000220: ab8d 433c 0ab5 6cbd 075e 18be a0bd c83b
00000230: 8933 5bbd c029 4abe e929 34bc 7b67 f1bc
00000240: f13b 053e b1a7 00be 37b7 1b3e 8595 edbd
00000250: f9d8 e7bd cecb ce3d 632c 32bd fe4a 2f3d
00000260: 0ca4 32bd f866 a8bd cdbe 2f3e f619 173e
00000270: 8706 a53d 619f 0e3e 79fd d2bd 95c7 863c
00000280: 19a0 ae3c 8e70 633b 1e1d 013d 92de 9ebd
00000290: 1fac 69bd 3b6e e5bd 6a2a 793b c34b 623d
000002a0: fc35 853c 99bd dc3a 84c3 97ba 289a c8bb
000002b0: 64b8 41be 47d1 353d 7496 37bb 2c9d 18be
000002c0: ee8a e0bd 2a65 ffbd 19ae 593e 1e5f 903e
000002d0: b2ab 1bbe 0d82 4b3d 2ecf f03d b3d3 94bd
000002e0: 6931 633e 3360 573e 01b1 1bbd 194c 333e
000002f0: 243d c1bd 07f5 debd ef58 ccbd df91 ee3d
00000300: 8f4c 013e 0d28 34bd 0cbf 953d cf34 8ebc
00000310: d49d 4c3d aa3a ecbd 64db 0cbe 121c c3bd
00000320: d72d 89bd 081a 9dbd 4a51 79bd d8a1 a23d
00000330: a869 a43d e0d2 f0bd 3568 d1bd d0bc 033d
00000340: 22b5 193e 60d3 10be 807d 3f3c 1a28 0fbe
00000350: 0029 82ba 7332 2bbe c3a4 d5bd bf15 c2bd
00000360: 708a 073d e1b4 1dbe 3ace 7dbd d073 333d
00000370: 3b65 1abe 80f8 21be a748 16be d795 8cbd
00000380: 90f7 f73d 1aab 853d 2086 e83d 70bb 693c
00000390: 4a82 91bd 64d3 06be 0656 293e dfb3 be3d
000003a0: 36b2 32bd 88f4 6bbe 02b5 ddbd 2c1e 4abe
000003b0: ce76 00be d0c7 363c 081f 4c3e 6a24 593d
000003c0: 182c 3e3d eaf4 5f3e 6f29 403d c15d 35bc
000003d0: 928d 4c3e c799 1f3e f7f1 02be 8731 4f3c
000003e0: 73a1 303e f09a b1bc ffd5 72bd 39d3 abbd
000003f0: 8821 2cbe 6e79 1e3e 3602 2b3e 44f7 3d3e
-0.002058744 -0.1565152 0.0034710127 -0.10139405 0.011912102 0.20322378 0.027921466 0.12161759
0.21326576 -0.078012064 -0.090366386 0.021988263 0.15538964 0.07442703 0.0714817 0.01504521
-0.0141374655 0.12316722 0.061119013 0.067355454 -0.022259165 -0.022154428 0.1862078 -0.045614976
-0.110089816 -0.030383233 -0.16211534 -0.030822182 -0.011300273 0.20933692 -0.100089185 -0.09226623
-0.029033594 0.07851757 0.024391683 0.19002229 0.14964719 0.17614824 -0.116108485 -0.13161606
-0.036771923 0.050011892 -0.15226717 0.12432145 -0.03463767 -0.12604119 0.19675146 0.25521302
0.020160638 -0.0061475034 0.13069186 -0.22333916 0.14803112 -0.15527576 -0.09058713 -0.117874414
-0.06294232 0.02365928 -0.13021845 0.18381146 -0.017834716 0.14412765 -0.10952613 0.15255101
0.049347196 -0.18269613 -0.051203918 -0.13272607 0.22074687 -0.10161487 -0.10335913 -0.017825399
0.0994616 -0.07450221 -0.015775094 -0.05593905 -0.06802365 0.09525416 -0.059224535 -0.12906179
0.062113322 -0.014373707 -0.1407848 -0.21093653 -0.020503968 0.14312531 0.17832528 0.14867179
0.024253437 0.115495615 0.06988619 -0.14987487 -0.21943676 0.1039342 0.12393624 0.16173439
-0.14107507 -0.06987537 -0.16672496 -0.15937388 0.10888288 -0.045429565 -0.03898475 -0.043433703
-0.0100721195 -0.08953004 -0.114976995 -0.12176543 0.04493442 0.12289632 0.032767832 0.053947236
-0.023243384 -0.09852617 0.16676885 0.021672059 0.021952378 -0.1058547 -0.052806247 0.17866223
-0.04765922 -0.13117892 -0.18173535 -0.190255 0.1494353 -0.01670288 0.004659836 -0.11824256
0.1661604 -0.13099028 -0.11298495 0.09199628 -0.14257865 -0.1584003 -0.00925774 -0.05558657
0.011935632 -0.05778984 -0.14879619 0.0061261207 -0.053515945 -0.19742489 -0.01099632 -0.029468289
0.13011147 -0.12563969 0.1520661 -0.11600784 -0.11320681 0.100974664 -0.04349936 0.042796127
-0.04361348 -0.08222765 0.17162628 0.14755997 0.080578856 0.13927986 -0.10302252 0.01645259
0.021316575 0.003470454 0.03152191 -0.07757296 -0.057048913 -0.112026654 0.0038019666 0.055248033
0.016261093 0.0016841172 -0.0011578654 -0.0061218925 -0.18917996 0.044389036 -0.002801326 -0.14903706
-0.10963999 -0.124704674 0.21257819 0.2819757 -0.15202215 0.049684573 0.117582664 -0.07266941
0.22186817 0.21032791 -0.0380106 0.17509498 -0.0943549 -0.10886579 -0.099779 0.116489165
0.12626861 -0.043983508 0.0731183 -0.017359165 0.049955204 -0.11534627 -0.13755566 -0.09526838
-0.066981964 -0.07670981 -0.06086854 0.079410255 0.08027965 -0.11758971 -0.10224954 0.032162488
0.15010503 -0.14143133 0.011687636 -0.13980141 -0.0009930432 -0.16718464 -0.104318164 -0.09476804
0.03309101 -0.15401031 -0.06196425 0.04381162 -0.15077679 -0.15817451 -0.14676152 -0.06864517
0.12107766 0.06526776 0.11353707 0.01426588 -0.07104929 -0.13166577 0.16536722 0.093116514
-0.043626986 -0.230425 -0.1082554 -0.19738072 -0.1254532 0.011156037 0.19933712 0.053013243
0.04642877 0.21870771 0.046914514 -0.011069716 0.1997588 0.15586005 -0.12787615 0.012646086
0.17249088 -0.021680325 -0.059286114 -0.08389897 -0.16809666 0.15476009 0.16700062 0.18551356

network.0.bias f4 [64]
00000000: 93be f2bd 23cd 183e 9638 203e f4ef e03d
00000010: b5af f93c 27ba 0a3e d41b ebbd 1a54 153d
00000020: beb5 a53d 5d06 1c3e bb37 01be a1b1 9cbc
00000030: 7612 fb3c 1dd2 0fbe 606c 25be 453f 30bd
00000040: b3ee a53d 6ed4 1c3e 97b4 3e3d 85b0 47bd
00000050: bee6 07be 00a3 aabb 44e4 1bbe 9bef 53bc
00000060: 2ad5 c23d 88f1 18be 11bb 06be 42b9 203e
00000070: 1214 203e 4ed3 2a3e fd9b 04bc 7cf8 05be
00000080: 32e3 b2bd 3f8b 523c e21c 17be c674 b83d
00000090: fb63 043e cb7c 79bc d909 75bd 2725 afbc
000000a0: 3a5e d03d e451 063e c242 f3bd 4000 063e
000000b0: d60d 233d 34f7 103e 0c3d 9b3d 7e26 133e
000000c0: 5268 e03d 6b58 1f3e d5bd 963c e314 53bd
000000d0: d1db 633d a17b 9fbd 03df 18be 7912 a3bd
000000e0: f6e5 a5bd 31be 02be 302e fdbd 5dc8 813d
000000f0: eeae 0cbe 4ba5 e8bc 47ce ddbd ab8a cbbc
-0.118527554 0.14922003 0.15646586 0.109832674 0.030479291 0.13547574 -0.11479917 0.03645716
0.08091305 0.15236802 -0.12618916 -0.019127669 0.030648451 -0.14044996 -0.16154623 -0.04302909
0.08102169 0.1531541 0.046558943 -0.048752327 -0.13271615 -0.0052074194 -0.15223795 -0.012935544
0.09513314 -0.14935887 -0.13157298 0.1569567 0.15632656 0.16682169 -0.008093831 -0.1308307
-0.0873474 0.012850582 -0.14757112 0.09006648 0.12928765 -0.015227507 -0.059823845 -0.02138002
0.10174222 0.13117176 -0.118779674 0.13086033 0.039808117 0.141568 0.07580003 0.14370152
0.109573975 0.15561073 0.018401066 -0.05153359 0.055629555 -0.07787252 -0.14928822 -0.07962508
-0.08100502 -0.12767865 -0.12362325 0.063370444 -0.13738605 -0.02839913 -0.1083036 -0.024846395

network.2.weight f4 [64, 64]
00000000: d964 533d 004f 2d3d 26e2 3cbe b125 80bd
00000010: 9bef 413d 7748 a33d f008 b6bc 12d9 a0bd
00000020: 280a d43d ae74 17be cdeb ab3d f49a 03be
00000030: 7cd8 9dbc ed74 a0bd c84a 2cbd 5347 1f3e
00000040: 7bd4 4e3d 2974 a23d 54dd a9bb 5f2e 0c3e
00000050: 3f02 f5bc 804e 5cbb cfc6 e6bc eb6f ca3d
00000060: 1318 f03d 7ebb 513e 9bb2 ad3d 0ed0 c0bd
00000070: a07e 1e3e 22a6 4bbd 405a 1dbc 655d 163e
00000080: c486 0cbe 9958 163e 54b5 0dbe 600f 6cbd
00000090: b8d9 cbbd c3fc c7bc 06fc 0a3d 4dc4 04be
000000a0: 6e68 edbc 5a96 51be 8c7a 603c 00e0 3ebe
000000b0: 8100 c13c 3442 1e3d 4001 ddba 3788 993d
000000c0: 4164 a93d e2a8 833d ddff 783d 1226 493c
000000d0: 56c4 473e ed37 383e 43bf abbc 627c 3abd
000000e0: 6c0f 813d 2207 063e e139 37bc 7dd2 f43d
000000f0: 2cdd 163e 52dc df3b 836f c03d 1aff 36be
00000100: fa4d a63d 4856 ccbc c48f 7cbd d408 57bd
00000110: fc35 cc3d d432 883d 90a4 423c eca9 1bbd
00000120: 8043 11bd 209a 6cbc ee1a f33d 02e0 973d
00000130: 6099 583c 5c7d b0bd 480e 403d a049 fcbb
00000140: 00b7 8dbd 48b6 933d e8e2 b4bc 50ec d03c
00000150: 460d 9e3d 22a3 c93d c071 893b 56f4 cebd
00000160: 684e af3d a21d 8dbd 42e3 91bd c894 afbd
00000170: ac43 d9bd 0842 24bd 4c6f 87bd 6ebc f5bd
00000180: 622f ccbd 1003 19bc b48f 78bd 965d c1bd
00000190: d4ac babd 90c0 b93d dcce 3ebd 88ad 9abc
000001a0: 48bd e9bc 8412 b5bd 82bb 95bd 9c11 cfbd
000001b0: ccb5 4a3d 7c34 153d c43f 32bd 9c99 b4bd
000001c0: 08f9 96bd 90bf 3a3c 2235 fe3d d01d 83bd
000001d0: 02d7 a5bd 8ca0 51bd b0e9 1c3d 2036 b43c
000001e0: 38df 193d 305d b0bd 902b 673d 1028 70bd
000001f0: e46b acbd b875 64bd 125e cf3d 6648 d9bd
00000200: 1bd2 80bc 16d9 f7bc 3472 803d 9bce e6bd
00000210: 5116 953d 2098 5e3d 2aad b93d 3e86 b73d
00000220: 753b 0bbe 6380 433b 0a58 d93b 207a 8f3c
00000230: 8587 b6bd 90dc cc3c 6cd8 c3bd 6175 153e
00000240: e859 473e a58f 233d 56a7 c4bc deb7 073a
00000250: 7856 bdbd 44be f4bd fc82 123d 83ca 18be
00000260: 537c cdbd 8916 81bd a7a1 203d 7910 0b3e
00000270: 62de c9bd c1fe 2e3e a5a4 0fbc 33fa c53c
00000280: a791 003d f82d 893d f4e7 943b a2ed 973d
00000290: 16fa bfbc 3c38 fb3d 5598 1e3d 792f e43d
000002a0: 7791 51bd 41fa f23d db62 cbbd e824 5dbd
000002b0: c499 913d 530d a7bd 3f76 1cbd ea07 c23c
000002c0: c3f7 313e f161 75bd 9a60 84bd acef 5f3d
000002d0: 04d4 363e 03f8 c53c 9781 803d efa9 a6bd
000002e0: fa4c 4d3d 1837 923c 38c7 f33c 07b6 7a3c
000002f0: 1bdd 93bc 4417 1c3d 1b29 d83d 1506 d7bd
00000300: a26a c3bd 1177 f83d e146 9e3d 15b0 e5bd
00000310: 89c6 bcbd bb4e b13d 3e6f debd cc39 e23d
00000320: 8b50 bd3d 0c18 6abc 7555 6d3c 6a4a bb3d
00000330: 449c 79bd e6aa c03c 2869 3fbd aa03 3d3e
00000340: 0313 343e 1222 f7bc a4c6 d63b b225 1e3e
00000350: 05b5 0cbe 6e0a f8bd ea80 ec3d 13c7 873d
00000360: d1f1 efbd cc36 88bd 4f5e 023e e9cb cbbc
00000370: 2816 ccbc fa67 b13d 8561 93bd f9b5 423e
00000380: 7a2c 353d d78f 7dbc aa5c fabd 627c a03c
00000390: cd3d dc3d 1769 083e 08fc d9bd d214 ff3c
000003a0: af20 033e a9ab adbd 23ff 1d3e 5e95 00be
000003b0: 5453 89bd bec0 053e cdf5 debd ef8e c73d
000003c0: bf1c 31bd 16e8 f03d 0fe5 e13d 6cce 34bd
000003d0: 7496 f7bd ae68 973d 2509 02be c68c 6c3d
000003e0: ee83 233d d113 753e ba82 ef3d b135 733d
000003f0: 07ec ad3b aacf b6bc 8540 f83c 51af 103c
0.051609848 0.04231167 -0.18445644 -0.06257189 0.047347646 0.07972806 -0.022221059 -0.07853903
0.103535 -0.14790604 0.08394585 -0.12852079 -0.019268267 -0.07834802 -0.042063504 0.15554552
0.050495606 0.07932312 -0.005183855 0.13689564 -0.029908298 -0.0033616126 -0.028170971 0.09884628
0.11723342 0.20481679 0.08481332 -0.09414683 0.15477991 -0.049718983 -0.009604037 0.14684065
-0.13723284 0.14682235 -0.13838702 -0.05763185 -0.09953636 -0.024412518 0.033931755 -0.12965508
-0.02898046 -0.20467511 0.013701092 -0.18640137 0.02355981 0.038637355 -0.0016861334 0.07496684
0.08271075 0.06428696 0.060790885 0.012277143 0.1950849 0.17990084 -0.020965224 -0.045528777
0.063017696 0.13088658 -0.011183233 0.1195421 0.14732808 0.006831684 0.09396269 -0.17870751
0.081203416 -0.024943486 -0.061660543 -0.052498654 0.09971234 0.0665032 0.011880055 -0.038003847
-0.035464764 -0.014441043 0.11870371 0.07415773 0.013220161 -0.086176604 0.04688862 -0.0076992065
-0.0691967 0.07212502 -0.022080854 0.025503308 0.077173755 0.09845568 0.0041944683 -0.10105197
0.08559877 -0.06890418 -0.07123424 -0.085733 -0.106086105 -0.040102035 -0.06613025 -0.11998831
-0.09969975 -0.009339109 -0.06068392 -0.09441678 -0.091149956 0.090699315 -0.046583995 -0.018881574
-0.02853264 -0.08841422 -0.07311155 -0.101107806 0.04948978 0.036427006 -0.043517843 -0.08818361
-0.07371718 0.011398211 0.12412478 -0.06402171 -0.0809765 -0.0511785 0.0383088 0.021998465
0.037566394 -0.08611524 0.05643803 -0.058631957 -0.08419016 -0.055776328 0.10125364 -0.10609512
-0.015725186 -0.030254882 0.062717825 -0.112698756 0.07279647 0.054344296 0.090662315 0.089611515
-0.135969 0.0029831163 0.0066328095 0.017514288 -0.08912567 0.025007516 -0.095627636 0.14595558
0.1946789 0.039931912 -0.024005573 0.00051772397 -0.09245008 -0.11950353 0.035769448 -0.14921002
-0.100334786 -0.06303126 0.039216664 0.13580503 -0.09856869 0.17089368 -0.008767282 0.024167156
0.031388905 0.06698221 0.0045442525 0.07418372 -0.02343468 0.12266585 0.038719494 0.11141867
-0.051164117 0.118641384 -0.099309646 -0.053990275 0.071094066 -0.08156838 -0.038198706 0.023685414
0.1737967 -0.059907857 -0.06463738 0.05467193 0.17854315 0.024166113 0.06274717 -0.08137881
0.05012224 0.017848536 0.02975808 0.015302188 -0.018049767 0.038108125 0.10554715 -0.10499207
-0.09541823 0.12132085 0.07728363 -0.112152256 -0.09217555 0.08657595 -0.108610615 0.1104618
0.09243878 -0.01428796 0.014485707 0.09145053 -0.060940042 0.02351899 -0.046731144 0.18458429
0.17585377 -0.030167613 0.0065544415 0.15444067 -0.13740928 -0.12111364 0.11548026 0.06629767
-0.11716045 -0.06651077 0.12731288 -0.024877505 -0.024912909 0.0866241 -0.07196335 0.1901473
0.04423187 -0.015476189 -0.122247055 0.01959056 0.10753975 0.13321339 -0.10643774 0.031137858
0.12805437 -0.08480007 0.15429358 -0.12556979 -0.06705347 0.13061807 -0.108867265 0.09744059
-0.043240305 0.11763017 0.110300176 -0.04414217 -0.120892435 0.07393013 -0.12698801 0.05775144
0.03992074 0.2393334 0.11694856 0.059377376 0.0053076777 -0.022315819 0.030304203 0.008830861

network.2.bias f4 [64]
00000000: 3d7c d53d c0a0 4e3b 2ded b53c 7584 42bd
00000010: 39e3 a63d e988 ed3c f741 f83c 215f 07bd
00000020: 2c31 363d 8ec0 6ebd a386 463c 1de6 7abd
00000030: a12c 83bc d4a1 143e e501 f6bc 20e9 f8bc
00000040: 5ff0 bfbd d694 d23d 6b5e 013e e6fb e9bd
00000050: 6eba 173d 02f7 66bd 4b59 a1bd 6a16 bcbd
00000060: 0a4e 58bc fcfd e33c fbb1 6fbd 04d3 28bd
00000070: 3e2a d1bb feba a73c d790 e83d 2c56 99bd
00000080: 3e24 193e 1f56 a53d f8af 713d 7834 953d
00000090: 1001 ccbd 6cb8 903c fa32 32bd f78f 39bc
000000a0: e5cf 4fbd db3c a03d 8ca5 0d3e a61e 60bd
000000b0: cf0e 35bd 0c38 d9bd 18fc f33d 0d24 d1bd
000000c0: 53a0 873c af76 37bd 3e32 ee3c 1ff0 3ebd
000000d0: 35a8 aa3c 3fd2 233d 3338 b5bd a55b 80bd
000000e0: e43f 063e 1cc4 f53d 6051 713d 1dc2 a3bd
000000f0: 7a0c 3f3d 80c4 8d3d 9763 0c3e 45dd b53d
0.10424087 0.003152892 0.02220782 -0.047489602 0.08148808 0.028995948 0.030304892 -0.033049706
0.044480488 -0.058289103 0.012117061 -0.06125461 -0.016012492 0.14514858 -0.0300302 -0.0303846
-0.09372019 0.102822945 0.12633674 -0.11424999 0.037043028 -0.05638791 -0.078783594 -0.09183963
-0.0132022 0.02783107 -0.058519345 -0.041216865 -0.0063832095 0.020474907 0.11355751 -0.07487139
0.14955232 0.08073067 0.059005708 0.07285398 -0.0996114 0.017666064 -0.043505646 -0.011325828
-0.050735373 0.07824107 0.13832682 -0.05471673 -0.044203576 -0.10606393 0.119133174 -0.10211954
0.01655594 -0.04479092 0.029076692 -0.046615716 0.02083216 0.03999543 -0.0884861 -0.0626748
0.1311031 0.120002955 0.058915496 -0.079960085 0.046642758 0.06922245 0.13709866 0.088800944

network.4.weight f4 [11, 64]
00000000: afe1 b1bd 8844 bfbc 5418 743c 1e05 6abe
00000010: 10b1 d9bd 35d2 02bd 95b9 713d 8cae 09be
00000020: 57bc f8bd 703e e2bb ad58 c03d 501c c3bd
00000030: 949f b93d 9454 10bc 5079 d03d e3b8 24be
00000040: cc52 053e ebb9 a4bd 8a70 d23d 04fd 4d3d
00000050: cf89 a33c 9f3d 0d3e 0684 9cbd b18a f33d
00000060: bc7a febd 36ba f8bd d777 443d 5b19 e93c
00000070: 591a ef3d 445c eebc 6969 fa3d 5109 d93b
00000080: a542 093d dfc4 00bd 5279 ecbc e30c 233e
00000090: c0fb dc3c b8bf 13bc 858e 053e 777a 31be
000000a0: 3704 59be bacd 653d 8959 a63d c0b3 59be
000000b0: e1d7 e2bd b1bc cebd 7da8 a53d f213 643d
000000c0: 4bc1 65be dce3 debc 6a28 0dbc 60f8 a43d
000000d0: b101 193e 764d 35be a36d 0fbe 1259 6cbd
000000e0: 5097 abbd cb40 b7bc 2660 343e 7000 423e
000000f0: 0ceb 0d3e 0416 2e3d 8c51 6cbd 02f8 87bd
00000100: c8a2 98bd 54f3 453d 86f3 17be 9ece 083d
00000110: 996c 043e b2bb 1e3e 11bd cdbc 6357 fabd
00000120: 8e3c 343d 00e4 9c3d 73ad a9bd b848 973c
00000130: 0b47 28be 1c37 17bc b2da 27be 7807 ccbd
00000140: 336c 6c3c 54c8 0cbe bb68 8fbd 68c2 9fbc
00000150: fbd2 b9bc 6acd 12bc a8de db3c 95ac d2bd
00000160: 2c2a 56bd 11e3 a23d 1f6f 293e 4625 90bc
00000170: 60be ddbd 8109 05be deab 0cbe 372a f33c
00000180: 16b2 3cbe 708b cd3d ffd7 64bd 2f9c 49be
00000190: 4c8a 40bd 2083 033e 50eb 16be ef26 423e
000001a0: b6f2 d43d 9497 d7bd cf5f 9dbd 1ef7 6bbb
000001b0: 8667 253e 1ca6 663c 3383 94bc 4e26 1c3d
000001c0: 1d98 43be fe1f c4bd 8ece d53d ea74 c93d
000001d0: 6ff5 27be 4908 3bbd 40e4 84bd a73a 843d
000001e0: d67d ad3c 10d4 0d3d 5a37 f9bd 2dfd 7d3c
000001f0: 3fbd e23c 0043 a43b 790f 533d f02a 1dbd
00000200: dea9 083e aaae b13d b034 8b3d b7a4 cb3d
00000210: 038c b3bd f1ba cf3d 569f 9b3d b3cf ba3c
00000220: 5c27 fdbd a54a 4b3c 41c7 18bd 24fd 8cbd
00000230: 602b 163e 83ec 463e 3fb5 013e f500 303d
00000240: bcea a2bc 86dc 0abe e370 34be 2051 873d
00000250: b01f 193e 97fa 29bd 46f8 0cbe 6415 133c
00000260: 00d2 12be a695 55bd 4256 5d3d 9782 2abd
00000270: 9241 ee3c cee5 243e 7f5c 173e 4222 0f3e
00000280: 861d 563d a9f1 17bd 232e c1bd f1cc e1bb
00000290: d62c 923d 84bc 223d 2989 1dbe 15d9 6b3c
000002a0: bfd1 85be e97d 0bbe 2edf 36bd 8a11 cfbd
000002b0: 230e ab3d d8af 47bc 25b7 1fbe 8e58 be3d
000002c0: 13d7 b1bb 44f3 61bc 2cc9 dfbd 7647 c13c
000002d0: 3f78 cb3d e7bc f13d 5a8c a2bd 9976 a7bc
000002e0: c876 ca3d 6141 bcbd 0332 cebc b45a 38bc
000002f0: bca1 2b3d ad9e b23d 0968 3c3d f81d a73d
00000300: 83d0 3abb 304f 62bc 316d 6cbd ce1b 6fbd
00000310: 0b17 883d 4bc0 0ebd 0a6d 0e3e 2ab6 433e
00000320: d50d 04be 9c4d c93d 4de4 f43c 1bb5 df3d
00000330: 7010 8e3d 49a2 3bbe 26e9 b6bd d213 01bd
00000340: e47d d23d 9977 d5bc 05f3 573d 3eaa cfbd
00000350: 1fe4 4bbe 021d 153e fecc 2ebd 9bb3 a63c
00000360: 1d2d 203d 2d8d fabd 5794 f0bd 1201 15be
00000370: ac1b 62bd 901f 15be 57a8 d63b bc59 f9bd
00000380: 7302 eabd 07be 433d b7dd 353e 065e 373d
00000390: b444 33bd 7f43 dc3d cd9c be3d 20ae 2cbe
000003a0: 6e4f 2a3d c90d 09be 9751 01bd 700b 2fbd
000003b0: 42a2 96bc 920c 5ebc 46ab c3bd e37a 2ebe
000003c0: 73ac c73b c530 a63d 1bbb cb3d 765a f2bd
000003d0: 91f2 31bc 7c1c d63d 5bc2 80be d868 b1bd
000003e0: a709 5c3d 4afa 193e b914 3a3d 35e6 de3c
000003f0: 4b67 f23a e08b f33d 1d4e b6bd 3610 0d3e
-0.08685624 -0.023348108 0.014898378 -0.22853515 -0.10629475 -0.03193875 0.059014875 -0.1344549
-0.12145298 -0.006904416 0.093919136 -0.095268846 0.0906364 -0.0088092275 0.101793885 -0.16086154
0.13019866 -0.080432735 0.102753714 0.050290123 0.019963173 0.13793038 -0.07642369 0.11891688
-0.124257535 -0.12144892 0.04796585 0.028454473 0.11674947 -0.02909673 0.12227137 0.006623425
0.033510823 -0.03143775 -0.028866444 0.15922885 0.026975513 -0.009017877 0.13042648 -0.17331873
-0.21193014 0.0561044 0.08122546 -0.21259975 -0.11076332 -0.10094584 0.08088777 0.055683084
-0.22437017 -0.027208261 -0.0086155925 0.08055186 0.14942051 -0.1770533 -0.14006667 -0.05770213
-0.0837847 -0.022369763 0.17614803 0.1894548 0.13859195 0.042501464 -0.057694957 -0.066391006
-0.07452923 0.04832776 -0.1483899 0.03340017 0.12932052 0.15501288 -0.025114568 -0.12223699
0.044003062 0.07660675 -0.08285036 0.018467292 -0.1643335 -0.009229448 -0.1639202 -0.09962362
0.014430094 -0.13748294 -0.070023976 -0.01950188 -0.022683611 -0.008960107 0.02683957 -0.10286824
-0.052286312 0.07953466 0.16546296 -0.017595898 -0.10827327 -0.12991907 -0.13737437 0.029683216
-0.1842731 0.10036361 -0.055870052 -0.19688486 -0.04700689 0.12842989 -0.14738202 0.18960164
0.10397856 -0.10526958 -0.0768429 -0.0036005448 0.16152772 0.0140776895 -0.018128967 0.038122468
-0.19100995 -0.095764145 0.10439788 0.09836753 -0.16402219 -0.0456622 -0.06488848 0.064564995
0.021178167 0.034626067 -0.121687606 0.015502256 0.02767813 0.00501287 0.051528428 -0.038371027
0.13346049 0.08675893 0.06797159 0.09943526 -0.087669395 0.10143078 0.0759875 0.022804117
-0.12361023 0.012407933 -0.0372994 -0.0688422 0.14664984 0.1942616 0.12666796 0.042969663
-0.01988732 -0.13560686 -0.17621188 0.0660727 0.14953494 -0.041498747 -0.13766584 0.008977268
-0.14337921 -0.05214467 0.05403734 -0.041628446 0.029084 0.16103289 0.14781378 0.13977912
0.05227425 -0.0370957 -0.09432628 -0.006890886 0.07137458 0.039730564 -0.15384354 0.014395018
-0.26136586 -0.1362225 -0.044646434 -0.10110767 0.08352306 -0.0121879205 -0.15597208 0.09294234
-0.00542725 -0.013790909 -0.10927042 0.023593646 0.099350445 0.118036084 -0.07936926 -0.020442294
0.09885937 -0.091921575 -0.025170332 -0.011252094 0.04190229 0.08721671 0.045997653 0.08160013
-0.002850563 -0.013812825 -0.05772132 -0.058376126 0.0664502 -0.034851354 0.13908783 0.19112459
-0.12895902 0.09829256 0.029894019 0.10923215 0.06936729 -0.18323626 -0.08931188 -0.031513043
0.10277918 -0.026058005 0.052721996 -0.10139893 -0.1991124 0.14561847 -0.042675965 0.020349314
0.039105523 -0.122339584 -0.117470436 -0.1455119 -0.05520217 -0.14562821 0.0065508294 -0.121753186
-0.114262484 0.047788646 0.17760359 0.044767402 -0.043766692 0.10755061 0.09307251 -0.16863298
0.041579656 -0.13384165 -0.03157195 -0.042735517 -0.018387917 -0.013552802 -0.09554152 -0.17039065
0.0060935556 0.08114771 0.09947797 -0.1183366 -0.010861055 0.10454652 -0.2514828 -0.086625755
0.053720143 0.15036884 0.04542992 0.02720938 0.0018493918 0.118919134 -0.08901618 0.13775715

network.4.bias f4 [11]
00000000: 4841 95bd 6146 673d 5b51 8b3c a6ab 11bc
00000010: e1d6 d4bd cd2d ab3d ffe0 6abc 0a6f d23d
00000020: b650 22bd c729 82bc 829f d13c
-0.07287842 0.056463603 0.017006567 -0.008891022 -0.103925474 0.08358345 -0.01433587 0.10275085
-0.039627753 -0.015889062 0.025588755
